…
I1102 12:09:38.501665 46700 upgrade_proto.cpp:80] Successfully upgraded batch norm layers using deprecated params.
I1102 12:09:38.501776 46700 net.cpp:322] The NetState phase (0) differed from the phase (1) specified by a rule in layer test-data
I1102 12:09:38.502007 46700 net.cpp:58] Initializing net from parameters: 
name: "hand_gesture_reg_mouth64"
state {
  phase: TRAIN
  level: 0
  stage: ""
}
layer {
  name: "input-data"
  type: "Python"
  top: "data"
  top: "roi"
  include {
    phase: TRAIN
  }
  python_param {
    module: "pythonLayer"
    layer: "Data_Layer_train"
  }
}
layer {
  name: "conv1"
  type: "Convolution"
  bottom: "data"
  top: "conv1"
  param {
    lr_mult: 1
    decay_mult: 1
  }
  convolution_param {
    num_output: 12
    bias_term: false
    pad: 1
    kernel_size: 3
    stride: 2
    weight_filler {
      type: "xavier"
      std: 0.01
    }
  }
}
layer {
  name: "conv1_bn"
  type: "BatchNorm"
  bottom: "conv1"
  top: "conv1"
  batch_norm_param {
    use_global_stats: false
    moving_average_fraction: 0.9
    eps: 2e-05
  }
}
layer {
  name: "conv1_bn_scale"
  type: "Scale"
  bottom: "conv1"
  top: "conv1"
  param {
    lr_mult: 1
    decay_mult: 0
  }
  param {
    lr_mult: 1
    decay_mult: 0
  }
  scale_param {
    filler {
      value: 1
    }
    bias_term: true
    bias_filler {
      value: 0
    }
  }
}
layer {
  name: "relu1"
  type: "ReLU"
  bottom: "conv1"
  top: "conv1"
}
layer {
  name: "conv2"
  type: "Convolution"
  bottom: "conv1"
  top: "conv2"
  param {
    lr_mult: 1
    decay_mult: 1
  }
  convolution_param {
    num_output: 20
    bias_term: false
    pad: 1
    kernel_size: 3
    stride: 2
    weight_filler {
      type: "xavier"
      std: 0.1
    }
  }
}
layer {
  name: "conv2_bn"
  type: "BatchNorm"
  bottom: "conv2"
  top: "conv2"
  batch_norm_param {
    use_global_stats: false
    moving_average_fraction: 0.9
    eps: 2e-05
  }
}
layer {
  name: "conv2_bn_scale"
  type: "Scale"
  bottom: "conv2"
  top: "conv2"
  param {
    lr_mult: 1
    decay_mult: 0
  }
  param {
    lr_mult: 1
    decay_mult: 0
  }
  scale_param {
    filler {
      value: 1
    }
    bias_term: true
    bias_filler {
      value: 0
    }
  }
}
layer {
  name: "relu2"
  type: "ReLU"
  bottom: "conv2"
  top: "conv2"
}
layer {
  name: "conv3"
  type: "Convolution"
  bottom: "conv2"
  top: "conv3"
  param {
    lr_mult: 1
    decay_mult: 1
  }
  convolution_param {
    num_output: 40
    bias_term: false
    pad: 1
    kernel_size: 3
    stride: 2
    weight_filler {
      type: "xavier"
      std: 0.1
    }
  }
}
layer {
  name: "conv3_bn"
  type: "BatchNorm"
  bottom: "conv3"
  top: "conv3"
  batch_norm_param {
    use_global_stats: false
    moving_average_fraction: 0.9
    eps: 2e-05
  }
}
layer {
  name: "conv3_bn_scale"
  type: "Scale"
  bottom: "conv3"
  top: "conv3"
  param {
    lr_mult: 1
    decay_mult: 0
  }
  param {
    lr_mult: 1
    decay_mult: 0
  }
  scale_param {
    filler {
      value: 1
    }
    bias_term: true
    bias_filler {
      value: 0
    }
  }
}
layer {
  name: "relu3"
  type: "ReLU"
  bottom: "conv3"
  top: "conv3"
}
layer {
  name: "conv4"
  type: "Convolution"
  bottom: "conv3"
  top: "conv4"
  param {
    lr_mult: 1
    decay_mult: 1
  }
  convolution_param {
    num_output: 64
    bias_term: false
    pad: 1
    kernel_size: 3
    stride: 2
    weight_filler {
      type: "xavier"
      std: 0.1
    }
  }
}
layer {
  name: "conv4_bn"
  type: "BatchNorm"
  bottom: "conv4"
  top: "conv4"
  batch_norm_param {
    use_global_stats: false
    moving_average_fraction: 0.9
    eps: 2e-05
  }
}
layer {
  name: "conv4_bn_scale"
  type: "Scale"
  bottom: "conv4"
  top: "conv4"
  param {
    lr_mult: 1
    decay_mult: 0
  }
  param {
    lr_mult: 1
    decay_mult: 0
  }
  scale_param {
    filler {
      value: 1
    }
    bias_term: true
    bias_filler {
      value: 0
    }
  }
}
layer {
  name: "relu4"
  type: "ReLU"
  bottom: "conv4"
  top: "conv4"
}
layer {
  name: "conv5"
  type: "Convolution"
  bottom: "conv4"
  top: "conv5"
  param {
    lr_mult: 1
    decay_mult: 1
  }
  convolution_param {
    num_output: 64
    bias_term: false
    pad: 1
    kernel_size: 3
    stride: 1
    weight_filler {
      type: "xavier"
      std: 0.1
    }
  }
}
layer {
  name: "conv5_bn"
  type: "BatchNorm"
  bottom: "conv5"
  top: "conv5"
  batch_norm_param {
    use_global_stats: false
    moving_average_fraction: 0.9
    eps: 2e-05
  }
}
layer {
  name: "conv5_bn_scale"
  type: "Scale"
  bottom: "conv5"
  top: "conv5"
  param {
    lr_mult: 1
    decay_mult: 0
  }
  param {
    lr_mult: 1
    decay_mult: 0
  }
  scale_param {
    filler {
      value: 1
    }
    bias_term: true
    bias_filler {
      value: 0
    }
  }
}
layer {
  name: "relu5"
  type: "ReLU"
  bottom: "conv5"
  top: "conv5"
}
layer {
  name: "ip1"
  type: "InnerProduct"
  bottom: "conv5"
  top: "ip1"
  param {
    lr_mult: 1
    decay_mult: 1
  }
  inner_product_param {
    num_output: 128
    bias_term: false
    weight_filler {
      type: "xavier"
      std: 0.1
    }
  }
}
layer {
  name: "ip1_bn"
  type: "BatchNorm"
  bottom: "ip1"
  top: "ip1"
  batch_norm_param {
    use_global_stats: false
    moving_average_fraction: 0.9
    eps: 2e-05
  }
}
layer {
  name: "ip1_bn_scale"
  type: "Scale"
  bottom: "ip1"
  top: "ip1"
  param {
    lr_mult: 1
    decay_mult: 0
  }
  param {
    lr_mult: 1
    decay_mult: 0
  }
  scale_param {
    filler {
      value: 1
    }
    bias_term: true
    bias_filler {
      value: 0
    }
  }
}
layer {
  name: "relu-ip1"
  type: "ReLU"
  bottom: "ip1"
  top: "ip1"
}
layer {
  name: "fullyconnected1"
  type: "InnerProduct"
  bottom: "ip1"
  top: "fullyconnected1"
  param {
    lr_mult: 1
    decay_mult: 1
  }
  param {
    lr_mult: 2
    decay_mult: 1
  }
  inner_product_param {
    num_output: 4
    weight_filler {
      type: "xavier"
    }
    bias_filler {
      type: "constant"
      value: 0
    }
  }
}
layer {
  name: "smallRegressionLoss"
  type: "EuclideanLoss"
  bottom: "fullyconnected1"
  bottom: "roi"
  top: "RegressionLoss"
  loss_weight: 1
  propagate_down: true
  propagate_down: false
}
I1102 12:09:38.502388 46700 layer_factory.hpp:77] Creating layer input-data
I1102 12:09:40.222297 46700 net.cpp:100] Creating Layer input-data
I1102 12:09:40.222368 46700 net.cpp:408] input-data -> data
I1102 12:09:40.222414 46700 net.cpp:408] input-data -> roi

Start Reading: /nfs/zhengmeisong/wkspace/gesture/caffe/data/regData/252627train.txt  into Memory...

I1102 12:45:36.365792 46700 net.cpp:157] Top shape: 128 3 64 64 (1572864)
I1102 12:45:36.365811 46700 net.cpp:157] Top shape: 128 4 (512)
I1102 12:45:36.365823 46700 net.cpp:165] Memory required for data: 6293504
I1102 12:45:36.365855 46700 layer_factory.hpp:77] Creating layer conv1
I1102 12:45:36.365901 46700 net.cpp:100] Creating Layer conv1
I1102 12:45:36.365922 46700 net.cpp:434] conv1 <- data
I1102 12:45:36.365957 46700 net.cpp:408] conv1 -> conv1
I1102 12:45:36.368556 46700 net.cpp:150] Setting up conv1
I1102 12:45:36.368592 46700 net.cpp:157] Top shape: 128 12 32 32 (1572864)
I1102 12:45:36.368607 46700 net.cpp:165] Memory required for data: 12584960
I1102 12:45:36.368638 46700 layer_factory.hpp:77] Creating layer conv1_bn
I1102 12:45:36.368680 46700 net.cpp:100] Creating Layer conv1_bn
I1102 12:45:36.368695 46700 net.cpp:434] conv1_bn <- conv1
I1102 12:45:36.368710 46700 net.cpp:395] conv1_bn -> conv1 (in-place)
I1102 12:45:36.368892 46700 net.cpp:150] Setting up conv1_bn
I1102 12:45:36.368916 46700 net.cpp:157] Top shape: 128 12 32 32 (1572864)
I1102 12:45:36.368929 46700 net.cpp:165] Memory required for data: 18876416
I1102 12:45:36.368948 46700 layer_factory.hpp:77] Creating layer conv1_bn_scale
I1102 12:45:36.368970 46700 net.cpp:100] Creating Layer conv1_bn_scale
I1102 12:45:36.368986 46700 net.cpp:434] conv1_bn_scale <- conv1
I1102 12:45:36.369002 46700 net.cpp:395] conv1_bn_scale -> conv1 (in-place)
I1102 12:45:36.369061 46700 layer_factory.hpp:77] Creating layer conv1_bn_scale
I1102 12:45:36.369181 46700 net.cpp:150] Setting up conv1_bn_scale
I1102 12:45:36.369206 46700 net.cpp:157] Top shape: 128 12 32 32 (1572864)
I1102 12:45:36.369246 46700 net.cpp:165] Memory required for data: 25167872
I1102 12:45:36.369268 46700 layer_factory.hpp:77] Creating layer relu1
I1102 12:45:36.369287 46700 net.cpp:100] Creating Layer relu1
I1102 12:45:36.369299 46700 net.cpp:434] relu1 <- conv1
I1102 12:45:36.369314 46700 net.cpp:395] relu1 -> conv1 (in-place)
I1102 12:45:36.369333 46700 net.cpp:150] Setting up relu1
I1102 12:45:36.369349 46700 net.cpp:157] Top shape: 128 12 32 32 (1572864)
I1102 12:45:36.369360 46700 net.cpp:165] Memory required for data: 31459328
I1102 12:45:36.369375 46700 layer_factory.hpp:77] Creating layer conv2
I1102 12:45:36.369401 46700 net.cpp:100] Creating Layer conv2
I1102 12:45:36.369415 46700 net.cpp:434] conv2 <- conv1
I1102 12:45:36.369431 46700 net.cpp:408] conv2 -> conv2
I1102 12:45:36.371722 46700 net.cpp:150] Setting up conv2
I1102 12:45:36.371765 46700 net.cpp:157] Top shape: 128 20 16 16 (655360)
I1102 12:45:36.371779 46700 net.cpp:165] Memory required for data: 34080768
I1102 12:45:36.371793 46700 layer_factory.hpp:77] Creating layer conv2_bn
I1102 12:45:36.371811 46700 net.cpp:100] Creating Layer conv2_bn
I1102 12:45:36.371824 46700 net.cpp:434] conv2_bn <- conv2
I1102 12:45:36.371840 46700 net.cpp:395] conv2_bn -> conv2 (in-place)
I1102 12:45:36.372000 46700 net.cpp:150] Setting up conv2_bn
I1102 12:45:36.372027 46700 net.cpp:157] Top shape: 128 20 16 16 (655360)
I1102 12:45:36.372040 46700 net.cpp:165] Memory required for data: 36702208
I1102 12:45:36.372058 46700 layer_factory.hpp:77] Creating layer conv2_bn_scale
I1102 12:45:36.372077 46700 net.cpp:100] Creating Layer conv2_bn_scale
I1102 12:45:36.372093 46700 net.cpp:434] conv2_bn_scale <- conv2
I1102 12:45:36.372110 46700 net.cpp:395] conv2_bn_scale -> conv2 (in-place)
I1102 12:45:36.372151 46700 layer_factory.hpp:77] Creating layer conv2_bn_scale
I1102 12:45:36.372267 46700 net.cpp:150] Setting up conv2_bn_scale
I1102 12:45:36.372293 46700 net.cpp:157] Top shape: 128 20 16 16 (655360)
I1102 12:45:36.372306 46700 net.cpp:165] Memory required for data: 39323648
I1102 12:45:36.372340 46700 layer_factory.hpp:77] Creating layer relu2
I1102 12:45:36.372360 46700 net.cpp:100] Creating Layer relu2
I1102 12:45:36.372373 46700 net.cpp:434] relu2 <- conv2
I1102 12:45:36.372395 46700 net.cpp:395] relu2 -> conv2 (in-place)
I1102 12:45:36.372414 46700 net.cpp:150] Setting up relu2
I1102 12:45:36.372431 46700 net.cpp:157] Top shape: 128 20 16 16 (655360)
I1102 12:45:36.372473 46700 net.cpp:165] Memory required for data: 41945088
I1102 12:45:36.372489 46700 layer_factory.hpp:77] Creating layer conv3
I1102 12:45:36.372509 46700 net.cpp:100] Creating Layer conv3
I1102 12:45:36.372524 46700 net.cpp:434] conv3 <- conv2
I1102 12:45:36.372540 46700 net.cpp:408] conv3 -> conv3
I1102 12:45:36.374902 46700 net.cpp:150] Setting up conv3
I1102 12:45:36.374938 46700 net.cpp:157] Top shape: 128 40 8 8 (327680)
I1102 12:45:36.374953 46700 net.cpp:165] Memory required for data: 43255808
I1102 12:45:36.374969 46700 layer_factory.hpp:77] Creating layer conv3_bn
I1102 12:45:36.374989 46700 net.cpp:100] Creating Layer conv3_bn
I1102 12:45:36.375001 46700 net.cpp:434] conv3_bn <- conv3
I1102 12:45:36.375018 46700 net.cpp:395] conv3_bn -> conv3 (in-place)
I1102 12:45:36.375187 46700 net.cpp:150] Setting up conv3_bn
I1102 12:45:36.375213 46700 net.cpp:157] Top shape: 128 40 8 8 (327680)
I1102 12:45:36.375226 46700 net.cpp:165] Memory required for data: 44566528
I1102 12:45:36.375241 46700 layer_factory.hpp:77] Creating layer conv3_bn_scale
I1102 12:45:36.375262 46700 net.cpp:100] Creating Layer conv3_bn_scale
I1102 12:45:36.375291 46700 net.cpp:434] conv3_bn_scale <- conv3
I1102 12:45:36.375308 46700 net.cpp:395] conv3_bn_scale -> conv3 (in-place)
I1102 12:45:36.375356 46700 layer_factory.hpp:77] Creating layer conv3_bn_scale
I1102 12:45:36.375473 46700 net.cpp:150] Setting up conv3_bn_scale
I1102 12:45:36.375500 46700 net.cpp:157] Top shape: 128 40 8 8 (327680)
I1102 12:45:36.375514 46700 net.cpp:165] Memory required for data: 45877248
I1102 12:45:36.375532 46700 layer_factory.hpp:77] Creating layer relu3
I1102 12:45:36.375550 46700 net.cpp:100] Creating Layer relu3
I1102 12:45:36.375564 46700 net.cpp:434] relu3 <- conv3
I1102 12:45:36.375579 46700 net.cpp:395] relu3 -> conv3 (in-place)
I1102 12:45:36.375597 46700 net.cpp:150] Setting up relu3
I1102 12:45:36.375612 46700 net.cpp:157] Top shape: 128 40 8 8 (327680)
I1102 12:45:36.375623 46700 net.cpp:165] Memory required for data: 47187968
I1102 12:45:36.375636 46700 layer_factory.hpp:77] Creating layer conv4
I1102 12:45:36.375654 46700 net.cpp:100] Creating Layer conv4
I1102 12:45:36.375691 46700 net.cpp:434] conv4 <- conv3
I1102 12:45:36.375708 46700 net.cpp:408] conv4 -> conv4
I1102 12:45:36.377979 46700 net.cpp:150] Setting up conv4
I1102 12:45:36.378015 46700 net.cpp:157] Top shape: 128 64 4 4 (131072)
I1102 12:45:36.378029 46700 net.cpp:165] Memory required for data: 47712256
I1102 12:45:36.378044 46700 layer_factory.hpp:77] Creating layer conv4_bn
I1102 12:45:36.378063 46700 net.cpp:100] Creating Layer conv4_bn
I1102 12:45:36.378077 46700 net.cpp:434] conv4_bn <- conv4
I1102 12:45:36.378093 46700 net.cpp:395] conv4_bn -> conv4 (in-place)
I1102 12:45:36.378366 46700 net.cpp:150] Setting up conv4_bn
I1102 12:45:36.378401 46700 net.cpp:157] Top shape: 128 64 4 4 (131072)
I1102 12:45:36.378446 46700 net.cpp:165] Memory required for data: 48236544
I1102 12:45:36.378484 46700 layer_factory.hpp:77] Creating layer conv4_bn_scale
I1102 12:45:36.378513 46700 net.cpp:100] Creating Layer conv4_bn_scale
I1102 12:45:36.378527 46700 net.cpp:434] conv4_bn_scale <- conv4
I1102 12:45:36.378545 46700 net.cpp:395] conv4_bn_scale -> conv4 (in-place)
I1102 12:45:36.378592 46700 layer_factory.hpp:77] Creating layer conv4_bn_scale
I1102 12:45:36.378708 46700 net.cpp:150] Setting up conv4_bn_scale
I1102 12:45:36.378734 46700 net.cpp:157] Top shape: 128 64 4 4 (131072)
I1102 12:45:36.378746 46700 net.cpp:165] Memory required for data: 48760832
I1102 12:45:36.378762 46700 layer_factory.hpp:77] Creating layer relu4
I1102 12:45:36.378782 46700 net.cpp:100] Creating Layer relu4
I1102 12:45:36.378793 46700 net.cpp:434] relu4 <- conv4
I1102 12:45:36.378808 46700 net.cpp:395] relu4 -> conv4 (in-place)
I1102 12:45:36.378825 46700 net.cpp:150] Setting up relu4
I1102 12:45:36.378840 46700 net.cpp:157] Top shape: 128 64 4 4 (131072)
I1102 12:45:36.378851 46700 net.cpp:165] Memory required for data: 49285120
I1102 12:45:36.378862 46700 layer_factory.hpp:77] Creating layer conv5
I1102 12:45:36.378908 46700 net.cpp:100] Creating Layer conv5
I1102 12:45:36.378923 46700 net.cpp:434] conv5 <- conv4
I1102 12:45:36.378937 46700 net.cpp:408] conv5 -> conv5
I1102 12:45:36.379287 46700 net.cpp:150] Setting up conv5
I1102 12:45:36.379314 46700 net.cpp:157] Top shape: 128 64 4 4 (131072)
I1102 12:45:36.379328 46700 net.cpp:165] Memory required for data: 49809408
I1102 12:45:36.379341 46700 layer_factory.hpp:77] Creating layer conv5_bn
I1102 12:45:36.379360 46700 net.cpp:100] Creating Layer conv5_bn
I1102 12:45:36.379376 46700 net.cpp:434] conv5_bn <- conv5
I1102 12:45:36.379400 46700 net.cpp:395] conv5_bn -> conv5 (in-place)
I1102 12:45:36.379562 46700 net.cpp:150] Setting up conv5_bn
I1102 12:45:36.379586 46700 net.cpp:157] Top shape: 128 64 4 4 (131072)
I1102 12:45:36.379600 46700 net.cpp:165] Memory required for data: 50333696
I1102 12:45:36.379616 46700 layer_factory.hpp:77] Creating layer conv5_bn_scale
I1102 12:45:36.379637 46700 net.cpp:100] Creating Layer conv5_bn_scale
I1102 12:45:36.379668 46700 net.cpp:434] conv5_bn_scale <- conv5
I1102 12:45:36.379700 46700 net.cpp:395] conv5_bn_scale -> conv5 (in-place)
I1102 12:45:36.379745 46700 layer_factory.hpp:77] Creating layer conv5_bn_scale
I1102 12:45:36.379853 46700 net.cpp:150] Setting up conv5_bn_scale
I1102 12:45:36.379880 46700 net.cpp:157] Top shape: 128 64 4 4 (131072)
I1102 12:45:36.379894 46700 net.cpp:165] Memory required for data: 50857984
I1102 12:45:36.379909 46700 layer_factory.hpp:77] Creating layer relu5
I1102 12:45:36.379927 46700 net.cpp:100] Creating Layer relu5
I1102 12:45:36.379940 46700 net.cpp:434] relu5 <- conv5
I1102 12:45:36.379954 46700 net.cpp:395] relu5 -> conv5 (in-place)
I1102 12:45:36.379972 46700 net.cpp:150] Setting up relu5
I1102 12:45:36.379987 46700 net.cpp:157] Top shape: 128 64 4 4 (131072)
I1102 12:45:36.379998 46700 net.cpp:165] Memory required for data: 51382272
I1102 12:45:36.380010 46700 layer_factory.hpp:77] Creating layer ip1
I1102 12:45:36.380029 46700 net.cpp:100] Creating Layer ip1
I1102 12:45:36.380043 46700 net.cpp:434] ip1 <- conv5
I1102 12:45:36.380056 46700 net.cpp:408] ip1 -> ip1
I1102 12:45:36.384562 46700 net.cpp:150] Setting up ip1
I1102 12:45:36.384610 46700 net.cpp:157] Top shape: 128 128 (16384)
I1102 12:45:36.384629 46700 net.cpp:165] Memory required for data: 51447808
I1102 12:45:36.384644 46700 layer_factory.hpp:77] Creating layer ip1_bn
I1102 12:45:36.384665 46700 net.cpp:100] Creating Layer ip1_bn
I1102 12:45:36.384680 46700 net.cpp:434] ip1_bn <- ip1
I1102 12:45:36.384698 46700 net.cpp:395] ip1_bn -> ip1 (in-place)
I1102 12:45:36.384853 46700 net.cpp:150] Setting up ip1_bn
I1102 12:45:36.384879 46700 net.cpp:157] Top shape: 128 128 (16384)
I1102 12:45:36.384893 46700 net.cpp:165] Memory required for data: 51513344
I1102 12:45:36.384915 46700 layer_factory.hpp:77] Creating layer ip1_bn_scale
I1102 12:45:36.384938 46700 net.cpp:100] Creating Layer ip1_bn_scale
I1102 12:45:36.384951 46700 net.cpp:434] ip1_bn_scale <- ip1
I1102 12:45:36.384970 46700 net.cpp:395] ip1_bn_scale -> ip1 (in-place)
I1102 12:45:36.385015 46700 layer_factory.hpp:77] Creating layer ip1_bn_scale
I1102 12:45:36.385133 46700 net.cpp:150] Setting up ip1_bn_scale
I1102 12:45:36.385157 46700 net.cpp:157] Top shape: 128 128 (16384)
I1102 12:45:36.385170 46700 net.cpp:165] Memory required for data: 51578880
I1102 12:45:36.385186 46700 layer_factory.hpp:77] Creating layer relu-ip1
I1102 12:45:36.385205 46700 net.cpp:100] Creating Layer relu-ip1
I1102 12:45:36.385242 46700 net.cpp:434] relu-ip1 <- ip1
I1102 12:45:36.385260 46700 net.cpp:395] relu-ip1 -> ip1 (in-place)
I1102 12:45:36.385275 46700 net.cpp:150] Setting up relu-ip1
I1102 12:45:36.385291 46700 net.cpp:157] Top shape: 128 128 (16384)
I1102 12:45:36.385309 46700 net.cpp:165] Memory required for data: 51644416
I1102 12:45:36.385324 46700 layer_factory.hpp:77] Creating layer fullyconnected1
I1102 12:45:36.385365 46700 net.cpp:100] Creating Layer fullyconnected1
I1102 12:45:36.385426 46700 net.cpp:434] fullyconnected1 <- ip1
I1102 12:45:36.385447 46700 net.cpp:408] fullyconnected1 -> fullyconnected1
I1102 12:45:36.385576 46700 net.cpp:150] Setting up fullyconnected1
I1102 12:45:36.385635 46700 net.cpp:157] Top shape: 128 4 (512)
I1102 12:45:36.385649 46700 net.cpp:165] Memory required for data: 51646464
I1102 12:45:36.385665 46700 layer_factory.hpp:77] Creating layer smallRegressionLoss
I1102 12:45:36.385713 46700 net.cpp:100] Creating Layer smallRegressionLoss
I1102 12:45:36.385727 46700 net.cpp:434] smallRegressionLoss <- fullyconnected1
I1102 12:45:36.385741 46700 net.cpp:434] smallRegressionLoss <- roi
I1102 12:45:36.385776 46700 net.cpp:408] smallRegressionLoss -> RegressionLoss
…
