…
I1027 18:42:33.914822 40125 upgrade_proto.cpp:80] Successfully upgraded batch norm layers using deprecated params.
I1027 18:42:33.914979 40125 net.cpp:322] The NetState phase (0) differed from the phase (1) specified by a rule in layer test-data
I1027 18:42:33.915293 40125 net.cpp:58] Initializing net from parameters: 
name: "hand_gesture_reg_mouth64"
state {
  phase: TRAIN
  level: 0
  stage: ""
}
layer {
  name: "input-data"
  type: "Python"
  top: "data"
  top: "roi"
  include {
    phase: TRAIN
  }
  python_param {
    module: "pythonLayer"
    layer: "Data_Layer_train"
  }
}
layer {
  name: "conv1"
  type: "Convolution"
  bottom: "data"
  top: "conv1"
  param {
    lr_mult: 1
    decay_mult: 1
  }
  convolution_param {
    num_output: 12
    bias_term: false
    pad: 1
    kernel_size: 3
    stride: 2
    weight_filler {
      type: "xavier"
      std: 0.01
    }
  }
}
layer {
  name: "conv1_bn"
  type: "BatchNorm"
  bottom: "conv1"
  top: "conv1"
  batch_norm_param {
    use_global_stats: false
    moving_average_fraction: 0.9
    eps: 2e-05
  }
}
layer {
  name: "conv1_bn_scale"
  type: "Scale"
  bottom: "conv1"
  top: "conv1"
  param {
    lr_mult: 1
    decay_mult: 0
  }
  param {
    lr_mult: 1
    decay_mult: 0
  }
  scale_param {
    filler {
      value: 1
    }
    bias_term: true
    bias_filler {
      value: 0
    }
  }
}
layer {
  name: "relu1"
  type: "ReLU"
  bottom: "conv1"
  top: "conv1"
}
layer {
  name: "conv2"
  type: "Convolution"
  bottom: "conv1"
  top: "conv2"
  param {
    lr_mult: 1
    decay_mult: 1
  }
  convolution_param {
    num_output: 20
    bias_term: false
    pad: 1
    kernel_size: 3
    stride: 2
    weight_filler {
      type: "xavier"
      std: 0.1
    }
  }
}
layer {
  name: "conv2_bn"
  type: "BatchNorm"
  bottom: "conv2"
  top: "conv2"
  batch_norm_param {
    use_global_stats: false
    moving_average_fraction: 0.9
    eps: 2e-05
  }
}
layer {
  name: "conv2_bn_scale"
  type: "Scale"
  bottom: "conv2"
  top: "conv2"
  param {
    lr_mult: 1
    decay_mult: 0
  }
  param {
    lr_mult: 1
    decay_mult: 0
  }
  scale_param {
    filler {
      value: 1
    }
    bias_term: true
    bias_filler {
      value: 0
    }
  }
}
layer {
  name: "relu2"
  type: "ReLU"
  bottom: "conv2"
  top: "conv2"
}
layer {
  name: "conv3"
  type: "Convolution"
  bottom: "conv2"
  top: "conv3"
  param {
    lr_mult: 1
    decay_mult: 1
  }
  convolution_param {
    num_output: 40
    bias_term: false
    pad: 1
    kernel_size: 3
    stride: 2
    weight_filler {
      type: "xavier"
      std: 0.1
    }
  }
}
layer {
  name: "conv3_bn"
  type: "BatchNorm"
  bottom: "conv3"
  top: "conv3"
  batch_norm_param {
    use_global_stats: false
    moving_average_fraction: 0.9
    eps: 2e-05
  }
}
layer {
  name: "conv3_bn_scale"
  type: "Scale"
  bottom: "conv3"
  top: "conv3"
  param {
    lr_mult: 1
    decay_mult: 0
  }
  param {
    lr_mult: 1
    decay_mult: 0
  }
  scale_param {
    filler {
      value: 1
    }
    bias_term: true
    bias_filler {
      value: 0
    }
  }
}
layer {
  name: "relu3"
  type: "ReLU"
  bottom: "conv3"
  top: "conv3"
}
layer {
  name: "conv4"
  type: "Convolution"
  bottom: "conv3"
  top: "conv4"
  param {
    lr_mult: 1
    decay_mult: 1
  }
  convolution_param {
    num_output: 64
    bias_term: false
    pad: 1
    kernel_size: 3
    stride: 2
    weight_filler {
      type: "xavier"
      std: 0.1
    }
  }
}
layer {
  name: "conv4_bn"
  type: "BatchNorm"
  bottom: "conv4"
  top: "conv4"
  batch_norm_param {
    use_global_stats: false
    moving_average_fraction: 0.9
    eps: 2e-05
  }
}
layer {
  name: "conv4_bn_scale"
  type: "Scale"
  bottom: "conv4"
  top: "conv4"
  param {
    lr_mult: 1
    decay_mult: 0
  }
  param {
    lr_mult: 1
    decay_mult: 0
  }
  scale_param {
    filler {
      value: 1
    }
    bias_term: true
    bias_filler {
      value: 0
    }
  }
}
layer {
  name: "relu4"
  type: "ReLU"
  bottom: "conv4"
  top: "conv4"
}
layer {
  name: "conv5"
  type: "Convolution"
  bottom: "conv4"
  top: "conv5"
  param {
    lr_mult: 1
    decay_mult: 1
  }
  convolution_param {
    num_output: 64
    bias_term: false
    pad: 1
    kernel_size: 3
    stride: 1
    weight_filler {
      type: "xavier"
      std: 0.1
    }
  }
}
layer {
  name: "conv5_bn"
  type: "BatchNorm"
  bottom: "conv5"
  top: "conv5"
  batch_norm_param {
    use_global_stats: false
    moving_average_fraction: 0.9
    eps: 2e-05
  }
}
layer {
  name: "conv5_bn_scale"
  type: "Scale"
  bottom: "conv5"
  top: "conv5"
  param {
    lr_mult: 1
    decay_mult: 0
  }
  param {
    lr_mult: 1
    decay_mult: 0
  }
  scale_param {
    filler {
      value: 1
    }
    bias_term: true
    bias_filler {
      value: 0
    }
  }
}
layer {
  name: "relu5"
  type: "ReLU"
  bottom: "conv5"
  top: "conv5"
}
layer {
  name: "ip1"
  type: "InnerProduct"
  bottom: "conv5"
  top: "ip1"
  param {
    lr_mult: 1
    decay_mult: 1
  }
  inner_product_param {
    num_output: 128
    bias_term: false
    weight_filler {
      type: "xavier"
      std: 0.1
    }
  }
}
layer {
  name: "ip1_bn"
  type: "BatchNorm"
  bottom: "ip1"
  top: "ip1"
  batch_norm_param {
    use_global_stats: false
    moving_average_fraction: 0.9
    eps: 2e-05
  }
}
layer {
  name: "ip1_bn_scale"
  type: "Scale"
  bottom: "ip1"
  top: "ip1"
  param {
    lr_mult: 1
    decay_mult: 0
  }
  param {
    lr_mult: 1
    decay_mult: 0
  }
  scale_param {
    filler {
      value: 1
    }
    bias_term: true
    bias_filler {
      value: 0
    }
  }
}
layer {
  name: "relu-ip1"
  type: "ReLU"
  bottom: "ip1"
  top: "ip1"
}
layer {
  name: "fullyconnected1"
  type: "InnerProduct"
  bottom: "ip1"
  top: "fullyconnected1"
  param {
    lr_mult: 1
    decay_mult: 1
  }
  param {
    lr_mult: 2
    decay_mult: 1
  }
  inner_product_param {
    num_output: 4
    weight_filler {
      type: "xavier"
    }
    bias_filler {
      type: "constant"
      value: 0
    }
  }
}
layer {
  name: "smallRegressionLoss"
  type: "EuclideanLoss"
  bottom: "fullyconnected1"
  bottom: "roi"
  top: "RegressionLoss"
  loss_weight: 1
  propagate_down: true
  propagate_down: false
}
I1027 18:42:33.915524 40125 layer_factory.hpp:77] Creating layer input-data
I1027 18:42:36.907366 40125 net.cpp:100] Creating Layer input-data
I1027 18:42:36.907435 40125 net.cpp:408] input-data -> data
I1027 18:42:36.907490 40125 net.cpp:408] input-data -> roi
I1027 18:42:52.907781 40125 net.cpp:150] Setting up input-data
I1027 18:42:52.907891 40125 net.cpp:157] Top shape: 128 3 64 64 (1572864)
I1027 18:42:52.907907 40125 net.cpp:157] Top shape: 128 4 (512)
I1027 18:42:52.907918 40125 net.cpp:165] Memory required for data: 6293504
I1027 18:42:52.907954 40125 layer_factory.hpp:77] Creating layer conv1
I1027 18:42:52.908007 40125 net.cpp:100] Creating Layer conv1
I1027 18:42:52.908123 40125 net.cpp:434] conv1 <- data
I1027 18:42:52.908167 40125 net.cpp:408] conv1 -> conv1
I1027 18:42:52.912215 40125 net.cpp:150] Setting up conv1
I1027 18:42:52.912259 40125 net.cpp:157] Top shape: 128 12 32 32 (1572864)
I1027 18:42:52.912273 40125 net.cpp:165] Memory required for data: 12584960
I1027 18:42:52.912307 40125 layer_factory.hpp:77] Creating layer conv1_bn
I1027 18:42:52.912353 40125 net.cpp:100] Creating Layer conv1_bn
I1027 18:42:52.912370 40125 net.cpp:434] conv1_bn <- conv1
I1027 18:42:52.912418 40125 net.cpp:395] conv1_bn -> conv1 (in-place)
I1027 18:42:52.912714 40125 net.cpp:150] Setting up conv1_bn
I1027 18:42:52.912756 40125 net.cpp:157] Top shape: 128 12 32 32 (1572864)
I1027 18:42:52.912829 40125 net.cpp:165] Memory required for data: 18876416
I1027 18:42:52.912852 40125 layer_factory.hpp:77] Creating layer conv1_bn_scale
I1027 18:42:52.912890 40125 net.cpp:100] Creating Layer conv1_bn_scale
I1027 18:42:52.912904 40125 net.cpp:434] conv1_bn_scale <- conv1
I1027 18:42:52.912937 40125 net.cpp:395] conv1_bn_scale -> conv1 (in-place)
I1027 18:42:52.913005 40125 layer_factory.hpp:77] Creating layer conv1_bn_scale
I1027 18:42:52.913152 40125 net.cpp:150] Setting up conv1_bn_scale
I1027 18:42:52.913185 40125 net.cpp:157] Top shape: 128 12 32 32 (1572864)
I1027 18:42:52.913230 40125 net.cpp:165] Memory required for data: 25167872
I1027 18:42:52.913249 40125 layer_factory.hpp:77] Creating layer relu1
I1027 18:42:52.913278 40125 net.cpp:100] Creating Layer relu1
I1027 18:42:52.913291 40125 net.cpp:434] relu1 <- conv1
I1027 18:42:52.913306 40125 net.cpp:395] relu1 -> conv1 (in-place)
I1027 18:42:52.913336 40125 net.cpp:150] Setting up relu1
I1027 18:42:52.913353 40125 net.cpp:157] Top shape: 128 12 32 32 (1572864)
I1027 18:42:52.913391 40125 net.cpp:165] Memory required for data: 31459328
I1027 18:42:52.913408 40125 layer_factory.hpp:77] Creating layer conv2
I1027 18:42:52.913436 40125 net.cpp:100] Creating Layer conv2
I1027 18:42:52.913462 40125 net.cpp:434] conv2 <- conv1
I1027 18:42:52.913498 40125 net.cpp:408] conv2 -> conv2
I1027 18:42:52.919418 40125 net.cpp:150] Setting up conv2
I1027 18:42:52.919472 40125 net.cpp:157] Top shape: 128 20 16 16 (655360)
I1027 18:42:52.919504 40125 net.cpp:165] Memory required for data: 34080768
I1027 18:42:52.919524 40125 layer_factory.hpp:77] Creating layer conv2_bn
I1027 18:42:52.919574 40125 net.cpp:100] Creating Layer conv2_bn
I1027 18:42:52.919594 40125 net.cpp:434] conv2_bn <- conv2
I1027 18:42:52.919611 40125 net.cpp:395] conv2_bn -> conv2 (in-place)
I1027 18:42:52.919791 40125 net.cpp:150] Setting up conv2_bn
I1027 18:42:52.919818 40125 net.cpp:157] Top shape: 128 20 16 16 (655360)
I1027 18:42:52.919831 40125 net.cpp:165] Memory required for data: 36702208
I1027 18:42:52.919862 40125 layer_factory.hpp:77] Creating layer conv2_bn_scale
I1027 18:42:52.919883 40125 net.cpp:100] Creating Layer conv2_bn_scale
I1027 18:42:52.919934 40125 net.cpp:434] conv2_bn_scale <- conv2
I1027 18:42:52.919953 40125 net.cpp:395] conv2_bn_scale -> conv2 (in-place)
I1027 18:42:52.920004 40125 layer_factory.hpp:77] Creating layer conv2_bn_scale
I1027 18:42:52.920130 40125 net.cpp:150] Setting up conv2_bn_scale
I1027 18:42:52.920158 40125 net.cpp:157] Top shape: 128 20 16 16 (655360)
I1027 18:42:52.920171 40125 net.cpp:165] Memory required for data: 39323648
I1027 18:42:52.920192 40125 layer_factory.hpp:77] Creating layer relu2
I1027 18:42:52.920219 40125 net.cpp:100] Creating Layer relu2
I1027 18:42:52.920233 40125 net.cpp:434] relu2 <- conv2
I1027 18:42:52.920250 40125 net.cpp:395] relu2 -> conv2 (in-place)
I1027 18:42:52.920276 40125 net.cpp:150] Setting up relu2
I1027 18:42:52.920300 40125 net.cpp:157] Top shape: 128 20 16 16 (655360)
I1027 18:42:52.920313 40125 net.cpp:165] Memory required for data: 41945088
I1027 18:42:52.920325 40125 layer_factory.hpp:77] Creating layer conv3
I1027 18:42:52.920354 40125 net.cpp:100] Creating Layer conv3
I1027 18:42:52.920398 40125 net.cpp:434] conv3 <- conv2
I1027 18:42:52.920446 40125 net.cpp:408] conv3 -> conv3
I1027 18:42:52.924146 40125 net.cpp:150] Setting up conv3
I1027 18:42:52.924203 40125 net.cpp:157] Top shape: 128 40 8 8 (327680)
I1027 18:42:52.924218 40125 net.cpp:165] Memory required for data: 43255808
I1027 18:42:52.924238 40125 layer_factory.hpp:77] Creating layer conv3_bn
I1027 18:42:52.924268 40125 net.cpp:100] Creating Layer conv3_bn
I1027 18:42:52.924284 40125 net.cpp:434] conv3_bn <- conv3
I1027 18:42:52.924309 40125 net.cpp:395] conv3_bn -> conv3 (in-place)
I1027 18:42:52.924489 40125 net.cpp:150] Setting up conv3_bn
I1027 18:42:52.924513 40125 net.cpp:157] Top shape: 128 40 8 8 (327680)
I1027 18:42:52.924576 40125 net.cpp:165] Memory required for data: 44566528
I1027 18:42:52.924593 40125 layer_factory.hpp:77] Creating layer conv3_bn_scale
I1027 18:42:52.924616 40125 net.cpp:100] Creating Layer conv3_bn_scale
I1027 18:42:52.924636 40125 net.cpp:434] conv3_bn_scale <- conv3
I1027 18:42:52.924652 40125 net.cpp:395] conv3_bn_scale -> conv3 (in-place)
I1027 18:42:52.924703 40125 layer_factory.hpp:77] Creating layer conv3_bn_scale
I1027 18:42:52.924824 40125 net.cpp:150] Setting up conv3_bn_scale
I1027 18:42:52.924849 40125 net.cpp:157] Top shape: 128 40 8 8 (327680)
I1027 18:42:52.924861 40125 net.cpp:165] Memory required for data: 45877248
I1027 18:42:52.924888 40125 layer_factory.hpp:77] Creating layer relu3
I1027 18:42:52.924916 40125 net.cpp:100] Creating Layer relu3
I1027 18:42:52.924927 40125 net.cpp:434] relu3 <- conv3
I1027 18:42:52.924945 40125 net.cpp:395] relu3 -> conv3 (in-place)
I1027 18:42:52.924964 40125 net.cpp:150] Setting up relu3
I1027 18:42:52.924978 40125 net.cpp:157] Top shape: 128 40 8 8 (327680)
I1027 18:42:52.924989 40125 net.cpp:165] Memory required for data: 47187968
I1027 18:42:52.925009 40125 layer_factory.hpp:77] Creating layer conv4
I1027 18:42:52.925029 40125 net.cpp:100] Creating Layer conv4
I1027 18:42:52.925093 40125 net.cpp:434] conv4 <- conv3
I1027 18:42:52.925135 40125 net.cpp:408] conv4 -> conv4
I1027 18:42:52.928200 40125 net.cpp:150] Setting up conv4
I1027 18:42:52.928249 40125 net.cpp:157] Top shape: 128 64 4 4 (131072)
I1027 18:42:52.928290 40125 net.cpp:165] Memory required for data: 47712256
I1027 18:42:52.928339 40125 layer_factory.hpp:77] Creating layer conv4_bn
I1027 18:42:52.928380 40125 net.cpp:100] Creating Layer conv4_bn
I1027 18:42:52.928406 40125 net.cpp:434] conv4_bn <- conv4
I1027 18:42:52.928426 40125 net.cpp:395] conv4_bn -> conv4 (in-place)
I1027 18:42:52.928606 40125 net.cpp:150] Setting up conv4_bn
I1027 18:42:52.928644 40125 net.cpp:157] Top shape: 128 64 4 4 (131072)
I1027 18:42:52.928659 40125 net.cpp:165] Memory required for data: 48236544
I1027 18:42:52.928678 40125 layer_factory.hpp:77] Creating layer conv4_bn_scale
I1027 18:42:52.928699 40125 net.cpp:100] Creating Layer conv4_bn_scale
I1027 18:42:52.928719 40125 net.cpp:434] conv4_bn_scale <- conv4
I1027 18:42:52.928735 40125 net.cpp:395] conv4_bn_scale -> conv4 (in-place)
I1027 18:42:52.928784 40125 layer_factory.hpp:77] Creating layer conv4_bn_scale
I1027 18:42:52.928903 40125 net.cpp:150] Setting up conv4_bn_scale
I1027 18:42:52.928928 40125 net.cpp:157] Top shape: 128 64 4 4 (131072)
I1027 18:42:52.928941 40125 net.cpp:165] Memory required for data: 48760832
I1027 18:42:52.928956 40125 layer_factory.hpp:77] Creating layer relu4
I1027 18:42:52.928994 40125 net.cpp:100] Creating Layer relu4
I1027 18:42:52.929008 40125 net.cpp:434] relu4 <- conv4
I1027 18:42:52.929033 40125 net.cpp:395] relu4 -> conv4 (in-place)
I1027 18:42:52.929049 40125 net.cpp:150] Setting up relu4
I1027 18:42:52.929062 40125 net.cpp:157] Top shape: 128 64 4 4 (131072)
I1027 18:42:52.929075 40125 net.cpp:165] Memory required for data: 49285120
I1027 18:42:52.929095 40125 layer_factory.hpp:77] Creating layer conv5
I1027 18:42:52.929136 40125 net.cpp:100] Creating Layer conv5
I1027 18:42:52.929178 40125 net.cpp:434] conv5 <- conv4
I1027 18:42:52.929195 40125 net.cpp:408] conv5 -> conv5
I1027 18:42:52.929603 40125 net.cpp:150] Setting up conv5
I1027 18:42:52.929662 40125 net.cpp:157] Top shape: 128 64 4 4 (131072)
I1027 18:42:52.929674 40125 net.cpp:165] Memory required for data: 49809408
I1027 18:42:52.929705 40125 layer_factory.hpp:77] Creating layer conv5_bn
I1027 18:42:52.929800 40125 net.cpp:100] Creating Layer conv5_bn
I1027 18:42:52.929836 40125 net.cpp:434] conv5_bn <- conv5
I1027 18:42:52.929850 40125 net.cpp:395] conv5_bn -> conv5 (in-place)
I1027 18:42:52.930075 40125 net.cpp:150] Setting up conv5_bn
I1027 18:42:52.930109 40125 net.cpp:157] Top shape: 128 64 4 4 (131072)
I1027 18:42:52.930122 40125 net.cpp:165] Memory required for data: 50333696
I1027 18:42:52.930137 40125 layer_factory.hpp:77] Creating layer conv5_bn_scale
I1027 18:42:52.930531 40125 net.cpp:100] Creating Layer conv5_bn_scale
I1027 18:42:52.930546 40125 net.cpp:434] conv5_bn_scale <- conv5
I1027 18:42:52.930591 40125 net.cpp:395] conv5_bn_scale -> conv5 (in-place)
I1027 18:42:52.930644 40125 layer_factory.hpp:77] Creating layer conv5_bn_scale
I1027 18:42:52.930764 40125 net.cpp:150] Setting up conv5_bn_scale
I1027 18:42:52.930790 40125 net.cpp:157] Top shape: 128 64 4 4 (131072)
I1027 18:42:52.930804 40125 net.cpp:165] Memory required for data: 50857984
I1027 18:42:52.930817 40125 layer_factory.hpp:77] Creating layer relu5
I1027 18:42:52.930835 40125 net.cpp:100] Creating Layer relu5
I1027 18:42:52.930846 40125 net.cpp:434] relu5 <- conv5
I1027 18:42:52.930863 40125 net.cpp:395] relu5 -> conv5 (in-place)
I1027 18:42:52.930886 40125 net.cpp:150] Setting up relu5
I1027 18:42:52.930900 40125 net.cpp:157] Top shape: 128 64 4 4 (131072)
I1027 18:42:52.930924 40125 net.cpp:165] Memory required for data: 51382272
I1027 18:42:52.930949 40125 layer_factory.hpp:77] Creating layer ip1
I1027 18:42:52.930969 40125 net.cpp:100] Creating Layer ip1
I1027 18:42:52.930982 40125 net.cpp:434] ip1 <- conv5
I1027 18:42:52.931010 40125 net.cpp:408] ip1 -> ip1
I1027 18:42:52.934830 40125 net.cpp:150] Setting up ip1
I1027 18:42:52.934886 40125 net.cpp:157] Top shape: 128 128 (16384)
I1027 18:42:52.934900 40125 net.cpp:165] Memory required for data: 51447808
I1027 18:42:52.934923 40125 layer_factory.hpp:77] Creating layer ip1_bn
I1027 18:42:52.934991 40125 net.cpp:100] Creating Layer ip1_bn
I1027 18:42:52.935034 40125 net.cpp:434] ip1_bn <- ip1
I1027 18:42:52.935092 40125 net.cpp:395] ip1_bn -> ip1 (in-place)
I1027 18:42:52.935259 40125 net.cpp:150] Setting up ip1_bn
I1027 18:42:52.935284 40125 net.cpp:157] Top shape: 128 128 (16384)
I1027 18:42:52.935297 40125 net.cpp:165] Memory required for data: 51513344
I1027 18:42:52.935324 40125 layer_factory.hpp:77] Creating layer ip1_bn_scale
I1027 18:42:52.935349 40125 net.cpp:100] Creating Layer ip1_bn_scale
I1027 18:42:52.935362 40125 net.cpp:434] ip1_bn_scale <- ip1
I1027 18:42:52.935384 40125 net.cpp:395] ip1_bn_scale -> ip1 (in-place)
I1027 18:42:52.935477 40125 layer_factory.hpp:77] Creating layer ip1_bn_scale
I1027 18:42:52.935623 40125 net.cpp:150] Setting up ip1_bn_scale
I1027 18:42:52.935653 40125 net.cpp:157] Top shape: 128 128 (16384)
I1027 18:42:52.935667 40125 net.cpp:165] Memory required for data: 51578880
I1027 18:42:52.935683 40125 layer_factory.hpp:77] Creating layer relu-ip1
I1027 18:42:52.935715 40125 net.cpp:100] Creating Layer relu-ip1
I1027 18:42:52.935729 40125 net.cpp:434] relu-ip1 <- ip1
I1027 18:42:52.935763 40125 net.cpp:395] relu-ip1 -> ip1 (in-place)
I1027 18:42:52.935789 40125 net.cpp:150] Setting up relu-ip1
I1027 18:42:52.935802 40125 net.cpp:157] Top shape: 128 128 (16384)
I1027 18:42:52.935847 40125 net.cpp:165] Memory required for data: 51644416
I1027 18:42:52.935865 40125 layer_factory.hpp:77] Creating layer fullyconnected1
I1027 18:42:52.935884 40125 net.cpp:100] Creating Layer fullyconnected1
I1027 18:42:52.935911 40125 net.cpp:434] fullyconnected1 <- ip1
I1027 18:42:52.935948 40125 net.cpp:408] fullyconnected1 -> fullyconnected1
I1027 18:42:52.936089 40125 net.cpp:150] Setting up fullyconnected1
I1027 18:42:52.936120 40125 net.cpp:157] Top shape: 128 4 (512)
I1027 18:42:52.936131 40125 net.cpp:165] Memory required for data: 51646464
I1027 18:42:52.936146 40125 layer_factory.hpp:77] Creating layer smallRegressionLoss
I1027 18:42:52.936162 40125 net.cpp:100] Creating Layer smallRegressionLoss
I1027 18:42:52.936174 40125 net.cpp:434] smallRegressionLoss <- fullyconnected1
I1027 18:42:52.936187 40125 net.cpp:434] smallRegressionLoss <- roi
I1027 18:42:52.936221 40125 net.cpp:408] smallRegressionLoss -> RegressionLoss
…
