…
I1025 21:02:35.121464 27376 upgrade_proto.cpp:80] Successfully upgraded batch norm layers using deprecated params.
I1025 21:02:35.121583 27376 net.cpp:322] The NetState phase (0) differed from the phase (1) specified by a rule in layer test-data
I1025 21:02:35.121839 27376 net.cpp:58] Initializing net from parameters: 
name: "hand_gesture_reg_mouth64"
state {
  phase: TRAIN
  level: 0
  stage: ""
}
layer {
  name: "input-data"
  type: "Python"
  top: "data"
  top: "roi"
  include {
    phase: TRAIN
  }
  python_param {
    module: "pythonLayer"
    layer: "Data_Layer_train"
  }
}
layer {
  name: "conv1"
  type: "Convolution"
  bottom: "data"
  top: "conv1"
  param {
    lr_mult: 1
    decay_mult: 1
  }
  convolution_param {
    num_output: 12
    bias_term: false
    pad: 1
    kernel_size: 3
    stride: 2
    weight_filler {
      type: "xavier"
      std: 0.01
    }
  }
}
layer {
  name: "conv1_bn"
  type: "BatchNorm"
  bottom: "conv1"
  top: "conv1"
  batch_norm_param {
    use_global_stats: false
    moving_average_fraction: 0.9
    eps: 2e-05
  }
}
layer {
  name: "conv1_bn_scale"
  type: "Scale"
  bottom: "conv1"
  top: "conv1"
  param {
    lr_mult: 1
    decay_mult: 0
  }
  param {
    lr_mult: 1
    decay_mult: 0
  }
  scale_param {
    filler {
      value: 1
    }
    bias_term: true
    bias_filler {
      value: 0
    }
  }
}
layer {
  name: "relu1"
  type: "ReLU"
  bottom: "conv1"
  top: "conv1"
}
layer {
  name: "conv2"
  type: "Convolution"
  bottom: "conv1"
  top: "conv2"
  param {
    lr_mult: 1
    decay_mult: 1
  }
  convolution_param {
    num_output: 20
    bias_term: false
    pad: 1
    kernel_size: 3
    stride: 2
    weight_filler {
      type: "xavier"
      std: 0.1
    }
  }
}
layer {
  name: "conv2_bn"
  type: "BatchNorm"
  bottom: "conv2"
  top: "conv2"
  batch_norm_param {
    use_global_stats: false
    moving_average_fraction: 0.9
    eps: 2e-05
  }
}
layer {
  name: "conv2_bn_scale"
  type: "Scale"
  bottom: "conv2"
  top: "conv2"
  param {
    lr_mult: 1
    decay_mult: 0
  }
  param {
    lr_mult: 1
    decay_mult: 0
  }
  scale_param {
    filler {
      value: 1
    }
    bias_term: true
    bias_filler {
      value: 0
    }
  }
}
layer {
  name: "relu2"
  type: "ReLU"
  bottom: "conv2"
  top: "conv2"
}
layer {
  name: "conv3"
  type: "Convolution"
  bottom: "conv2"
  top: "conv3"
  param {
    lr_mult: 1
    decay_mult: 1
  }
  convolution_param {
    num_output: 40
    bias_term: false
    pad: 1
    kernel_size: 3
    stride: 2
    weight_filler {
      type: "xavier"
      std: 0.1
    }
  }
}
layer {
  name: "conv3_bn"
  type: "BatchNorm"
  bottom: "conv3"
  top: "conv3"
  batch_norm_param {
    use_global_stats: false
    moving_average_fraction: 0.9
    eps: 2e-05
  }
}
layer {
  name: "conv3_bn_scale"
  type: "Scale"
  bottom: "conv3"
  top: "conv3"
  param {
    lr_mult: 1
    decay_mult: 0
  }
  param {
    lr_mult: 1
    decay_mult: 0
  }
  scale_param {
    filler {
      value: 1
    }
    bias_term: true
    bias_filler {
      value: 0
    }
  }
}
layer {
  name: "relu3"
  type: "ReLU"
  bottom: "conv3"
  top: "conv3"
}
layer {
  name: "conv4"
  type: "Convolution"
  bottom: "conv3"
  top: "conv4"
  param {
    lr_mult: 1
    decay_mult: 1
  }
  convolution_param {
    num_output: 64
    bias_term: false
    pad: 1
    kernel_size: 3
    stride: 2
    weight_filler {
      type: "xavier"
      std: 0.1
    }
  }
}
layer {
  name: "conv4_bn"
  type: "BatchNorm"
  bottom: "conv4"
  top: "conv4"
  batch_norm_param {
    use_global_stats: false
    moving_average_fraction: 0.9
    eps: 2e-05
  }
}
layer {
  name: "conv4_bn_scale"
  type: "Scale"
  bottom: "conv4"
  top: "conv4"
  param {
    lr_mult: 1
    decay_mult: 0
  }
  param {
    lr_mult: 1
    decay_mult: 0
  }
  scale_param {
    filler {
      value: 1
    }
    bias_term: true
    bias_filler {
      value: 0
    }
  }
}
layer {
  name: "relu4"
  type: "ReLU"
  bottom: "conv4"
  top: "conv4"
}
layer {
  name: "conv5"
  type: "Convolution"
  bottom: "conv4"
  top: "conv5"
  param {
    lr_mult: 1
    decay_mult: 1
  }
  convolution_param {
    num_output: 64
    bias_term: false
    pad: 1
    kernel_size: 3
    stride: 1
    weight_filler {
      type: "xavier"
      std: 0.1
    }
  }
}
layer {
  name: "conv5_bn"
  type: "BatchNorm"
  bottom: "conv5"
  top: "conv5"
  batch_norm_param {
    use_global_stats: false
    moving_average_fraction: 0.9
    eps: 2e-05
  }
}
layer {
  name: "conv5_bn_scale"
  type: "Scale"
  bottom: "conv5"
  top: "conv5"
  param {
    lr_mult: 1
    decay_mult: 0
  }
  param {
    lr_mult: 1
    decay_mult: 0
  }
  scale_param {
    filler {
      value: 1
    }
    bias_term: true
    bias_filler {
      value: 0
    }
  }
}
layer {
  name: "relu5"
  type: "ReLU"
  bottom: "conv5"
  top: "conv5"
}
layer {
  name: "ip1"
  type: "InnerProduct"
  bottom: "conv5"
  top: "ip1"
  param {
    lr_mult: 1
    decay_mult: 1
  }
  inner_product_param {
    num_output: 128
    bias_term: false
    weight_filler {
      type: "xavier"
      std: 0.1
    }
  }
}
layer {
  name: "ip1_bn"
  type: "BatchNorm"
  bottom: "ip1"
  top: "ip1"
  batch_norm_param {
    use_global_stats: false
    moving_average_fraction: 0.9
    eps: 2e-05
  }
}
layer {
  name: "ip1_bn_scale"
  type: "Scale"
  bottom: "ip1"
  top: "ip1"
  param {
    lr_mult: 1
    decay_mult: 0
  }
  param {
    lr_mult: 1
    decay_mult: 0
  }
  scale_param {
    filler {
      value: 1
    }
    bias_term: true
    bias_filler {
      value: 0
    }
  }
}
layer {
  name: "relu-ip1"
  type: "ReLU"
  bottom: "ip1"
  top: "ip1"
}
layer {
  name: "fullyconnected1"
  type: "InnerProduct"
  bottom: "ip1"
  top: "fullyconnected1"
  param {
    lr_mult: 1
    decay_mult: 1
  }
  param {
    lr_mult: 2
    decay_mult: 1
  }
  inner_product_param {
    num_output: 4
    weight_filler {
      type: "xavier"
    }
    bias_filler {
      type: "constant"
      value: 0
    }
  }
}
layer {
  name: "smallRegressionLoss"
  type: "EuclideanLoss"
  bottom: "fullyconnected1"
  bottom: "roi"
  top: "RegressionLoss"
  loss_weight: 1
  propagate_down: true
  propagate_down: false
}
I1025 21:02:35.122035 27376 layer_factory.hpp:77] Creating layer input-data
I1025 21:02:36.194109 27376 net.cpp:100] Creating Layer input-data
I1025 21:02:36.194344 27376 net.cpp:408] input-data -> data
I1025 21:02:36.194396 27376 net.cpp:408] input-data -> roi
I1025 21:02:40.222090 27376 net.cpp:150] Setting up input-data
I1025 21:02:40.222252 27376 net.cpp:157] Top shape: 128 3 64 64 (1572864)
I1025 21:02:40.222364 27376 net.cpp:157] Top shape: 128 4 (512)
I1025 21:02:40.222398 27376 net.cpp:165] Memory required for data: 6293504
I1025 21:02:40.222429 27376 layer_factory.hpp:77] Creating layer conv1
I1025 21:02:40.222471 27376 net.cpp:100] Creating Layer conv1
I1025 21:02:40.222499 27376 net.cpp:434] conv1 <- data
I1025 21:02:40.222537 27376 net.cpp:408] conv1 -> conv1
I1025 21:02:40.225929 27376 net.cpp:150] Setting up conv1
I1025 21:02:40.225996 27376 net.cpp:157] Top shape: 128 12 32 32 (1572864)
I1025 21:02:40.226013 27376 net.cpp:165] Memory required for data: 12584960
I1025 21:02:40.226045 27376 layer_factory.hpp:77] Creating layer conv1_bn
I1025 21:02:40.226074 27376 net.cpp:100] Creating Layer conv1_bn
I1025 21:02:40.226090 27376 net.cpp:434] conv1_bn <- conv1
I1025 21:02:40.226124 27376 net.cpp:395] conv1_bn -> conv1 (in-place)
I1025 21:02:40.226517 27376 net.cpp:150] Setting up conv1_bn
I1025 21:02:40.226548 27376 net.cpp:157] Top shape: 128 12 32 32 (1572864)
I1025 21:02:40.226564 27376 net.cpp:165] Memory required for data: 18876416
I1025 21:02:40.226583 27376 layer_factory.hpp:77] Creating layer conv1_bn_scale
I1025 21:02:40.226604 27376 net.cpp:100] Creating Layer conv1_bn_scale
I1025 21:02:40.226619 27376 net.cpp:434] conv1_bn_scale <- conv1
I1025 21:02:40.226640 27376 net.cpp:395] conv1_bn_scale -> conv1 (in-place)
I1025 21:02:40.226730 27376 layer_factory.hpp:77] Creating layer conv1_bn_scale
I1025 21:02:40.226860 27376 net.cpp:150] Setting up conv1_bn_scale
I1025 21:02:40.226886 27376 net.cpp:157] Top shape: 128 12 32 32 (1572864)
I1025 21:02:40.226899 27376 net.cpp:165] Memory required for data: 25167872
I1025 21:02:40.226917 27376 layer_factory.hpp:77] Creating layer relu1
I1025 21:02:40.226943 27376 net.cpp:100] Creating Layer relu1
I1025 21:02:40.226954 27376 net.cpp:434] relu1 <- conv1
I1025 21:02:40.226999 27376 net.cpp:395] relu1 -> conv1 (in-place)
I1025 21:02:40.227042 27376 net.cpp:150] Setting up relu1
I1025 21:02:40.227078 27376 net.cpp:157] Top shape: 128 12 32 32 (1572864)
I1025 21:02:40.227090 27376 net.cpp:165] Memory required for data: 31459328
I1025 21:02:40.227105 27376 layer_factory.hpp:77] Creating layer conv2
I1025 21:02:40.227126 27376 net.cpp:100] Creating Layer conv2
I1025 21:02:40.227149 27376 net.cpp:434] conv2 <- conv1
I1025 21:02:40.227185 27376 net.cpp:408] conv2 -> conv2
I1025 21:02:40.229756 27376 net.cpp:150] Setting up conv2
I1025 21:02:40.229791 27376 net.cpp:157] Top shape: 128 20 16 16 (655360)
I1025 21:02:40.229805 27376 net.cpp:165] Memory required for data: 34080768
I1025 21:02:40.229821 27376 layer_factory.hpp:77] Creating layer conv2_bn
I1025 21:02:40.229840 27376 net.cpp:100] Creating Layer conv2_bn
I1025 21:02:40.229853 27376 net.cpp:434] conv2_bn <- conv2
I1025 21:02:40.229871 27376 net.cpp:395] conv2_bn -> conv2 (in-place)
I1025 21:02:40.230072 27376 net.cpp:150] Setting up conv2_bn
I1025 21:02:40.230113 27376 net.cpp:157] Top shape: 128 20 16 16 (655360)
I1025 21:02:40.230126 27376 net.cpp:165] Memory required for data: 36702208
I1025 21:02:40.230154 27376 layer_factory.hpp:77] Creating layer conv2_bn_scale
I1025 21:02:40.230315 27376 net.cpp:100] Creating Layer conv2_bn_scale
I1025 21:02:40.230370 27376 net.cpp:434] conv2_bn_scale <- conv2
I1025 21:02:40.230398 27376 net.cpp:395] conv2_bn_scale -> conv2 (in-place)
I1025 21:02:40.230445 27376 layer_factory.hpp:77] Creating layer conv2_bn_scale
I1025 21:02:40.230561 27376 net.cpp:150] Setting up conv2_bn_scale
I1025 21:02:40.230592 27376 net.cpp:157] Top shape: 128 20 16 16 (655360)
I1025 21:02:40.230604 27376 net.cpp:165] Memory required for data: 39323648
I1025 21:02:40.230633 27376 layer_factory.hpp:77] Creating layer relu2
I1025 21:02:40.230667 27376 net.cpp:100] Creating Layer relu2
I1025 21:02:40.230682 27376 net.cpp:434] relu2 <- conv2
I1025 21:02:40.230715 27376 net.cpp:395] relu2 -> conv2 (in-place)
I1025 21:02:40.230731 27376 net.cpp:150] Setting up relu2
I1025 21:02:40.230746 27376 net.cpp:157] Top shape: 128 20 16 16 (655360)
I1025 21:02:40.230759 27376 net.cpp:165] Memory required for data: 41945088
I1025 21:02:40.230779 27376 layer_factory.hpp:77] Creating layer conv3
I1025 21:02:40.230800 27376 net.cpp:100] Creating Layer conv3
I1025 21:02:40.230840 27376 net.cpp:434] conv3 <- conv2
I1025 21:02:40.230859 27376 net.cpp:408] conv3 -> conv3
I1025 21:02:40.234908 27376 net.cpp:150] Setting up conv3
I1025 21:02:40.234946 27376 net.cpp:157] Top shape: 128 40 8 8 (327680)
I1025 21:02:40.234961 27376 net.cpp:165] Memory required for data: 43255808
I1025 21:02:40.234977 27376 layer_factory.hpp:77] Creating layer conv3_bn
I1025 21:02:40.234997 27376 net.cpp:100] Creating Layer conv3_bn
I1025 21:02:40.235030 27376 net.cpp:434] conv3_bn <- conv3
I1025 21:02:40.235045 27376 net.cpp:395] conv3_bn -> conv3 (in-place)
I1025 21:02:40.235239 27376 net.cpp:150] Setting up conv3_bn
I1025 21:02:40.235263 27376 net.cpp:157] Top shape: 128 40 8 8 (327680)
I1025 21:02:40.235301 27376 net.cpp:165] Memory required for data: 44566528
I1025 21:02:40.235319 27376 layer_factory.hpp:77] Creating layer conv3_bn_scale
I1025 21:02:40.235353 27376 net.cpp:100] Creating Layer conv3_bn_scale
I1025 21:02:40.235375 27376 net.cpp:434] conv3_bn_scale <- conv3
I1025 21:02:40.235407 27376 net.cpp:395] conv3_bn_scale -> conv3 (in-place)
I1025 21:02:40.235460 27376 layer_factory.hpp:77] Creating layer conv3_bn_scale
I1025 21:02:40.235582 27376 net.cpp:150] Setting up conv3_bn_scale
I1025 21:02:40.235610 27376 net.cpp:157] Top shape: 128 40 8 8 (327680)
I1025 21:02:40.235628 27376 net.cpp:165] Memory required for data: 45877248
I1025 21:02:40.235662 27376 layer_factory.hpp:77] Creating layer relu3
I1025 21:02:40.235692 27376 net.cpp:100] Creating Layer relu3
I1025 21:02:40.235705 27376 net.cpp:434] relu3 <- conv3
I1025 21:02:40.235723 27376 net.cpp:395] relu3 -> conv3 (in-place)
I1025 21:02:40.235738 27376 net.cpp:150] Setting up relu3
I1025 21:02:40.235755 27376 net.cpp:157] Top shape: 128 40 8 8 (327680)
I1025 21:02:40.235790 27376 net.cpp:165] Memory required for data: 47187968
I1025 21:02:40.235816 27376 layer_factory.hpp:77] Creating layer conv4
I1025 21:02:40.235834 27376 net.cpp:100] Creating Layer conv4
I1025 21:02:40.235859 27376 net.cpp:434] conv4 <- conv3
I1025 21:02:40.235889 27376 net.cpp:408] conv4 -> conv4
I1025 21:02:40.240492 27376 net.cpp:150] Setting up conv4
I1025 21:02:40.240528 27376 net.cpp:157] Top shape: 128 64 4 4 (131072)
I1025 21:02:40.240556 27376 net.cpp:165] Memory required for data: 47712256
I1025 21:02:40.240573 27376 layer_factory.hpp:77] Creating layer conv4_bn
I1025 21:02:40.240608 27376 net.cpp:100] Creating Layer conv4_bn
I1025 21:02:40.240622 27376 net.cpp:434] conv4_bn <- conv4
I1025 21:02:40.240653 27376 net.cpp:395] conv4_bn -> conv4 (in-place)
I1025 21:02:40.240829 27376 net.cpp:150] Setting up conv4_bn
I1025 21:02:40.240854 27376 net.cpp:157] Top shape: 128 64 4 4 (131072)
I1025 21:02:40.240866 27376 net.cpp:165] Memory required for data: 48236544
I1025 21:02:40.240882 27376 layer_factory.hpp:77] Creating layer conv4_bn_scale
I1025 21:02:40.240913 27376 net.cpp:100] Creating Layer conv4_bn_scale
I1025 21:02:40.240927 27376 net.cpp:434] conv4_bn_scale <- conv4
I1025 21:02:40.240942 27376 net.cpp:395] conv4_bn_scale -> conv4 (in-place)
I1025 21:02:40.240989 27376 layer_factory.hpp:77] Creating layer conv4_bn_scale
I1025 21:02:40.241102 27376 net.cpp:150] Setting up conv4_bn_scale
I1025 21:02:40.241127 27376 net.cpp:157] Top shape: 128 64 4 4 (131072)
I1025 21:02:40.241147 27376 net.cpp:165] Memory required for data: 48760832
I1025 21:02:40.241163 27376 layer_factory.hpp:77] Creating layer relu4
I1025 21:02:40.241183 27376 net.cpp:100] Creating Layer relu4
I1025 21:02:40.241199 27376 net.cpp:434] relu4 <- conv4
I1025 21:02:40.241219 27376 net.cpp:395] relu4 -> conv4 (in-place)
I1025 21:02:40.241248 27376 net.cpp:150] Setting up relu4
I1025 21:02:40.241266 27376 net.cpp:157] Top shape: 128 64 4 4 (131072)
I1025 21:02:40.241276 27376 net.cpp:165] Memory required for data: 49285120
I1025 21:02:40.241297 27376 layer_factory.hpp:77] Creating layer conv5
I1025 21:02:40.241323 27376 net.cpp:100] Creating Layer conv5
I1025 21:02:40.241343 27376 net.cpp:434] conv5 <- conv4
I1025 21:02:40.241360 27376 net.cpp:408] conv5 -> conv5
I1025 21:02:40.241725 27376 net.cpp:150] Setting up conv5
I1025 21:02:40.241751 27376 net.cpp:157] Top shape: 128 64 4 4 (131072)
I1025 21:02:40.241765 27376 net.cpp:165] Memory required for data: 49809408
I1025 21:02:40.241777 27376 layer_factory.hpp:77] Creating layer conv5_bn
I1025 21:02:40.241793 27376 net.cpp:100] Creating Layer conv5_bn
I1025 21:02:40.241806 27376 net.cpp:434] conv5_bn <- conv5
I1025 21:02:40.241819 27376 net.cpp:395] conv5_bn -> conv5 (in-place)
I1025 21:02:40.241991 27376 net.cpp:150] Setting up conv5_bn
I1025 21:02:40.242015 27376 net.cpp:157] Top shape: 128 64 4 4 (131072)
I1025 21:02:40.242028 27376 net.cpp:165] Memory required for data: 50333696
I1025 21:02:40.242044 27376 layer_factory.hpp:77] Creating layer conv5_bn_scale
I1025 21:02:40.242080 27376 net.cpp:100] Creating Layer conv5_bn_scale
I1025 21:02:40.242094 27376 net.cpp:434] conv5_bn_scale <- conv5
I1025 21:02:40.242111 27376 net.cpp:395] conv5_bn_scale -> conv5 (in-place)
I1025 21:02:40.242292 27376 layer_factory.hpp:77] Creating layer conv5_bn_scale
I1025 21:02:40.242419 27376 net.cpp:150] Setting up conv5_bn_scale
I1025 21:02:40.242455 27376 net.cpp:157] Top shape: 128 64 4 4 (131072)
I1025 21:02:40.242470 27376 net.cpp:165] Memory required for data: 50857984
I1025 21:02:40.242486 27376 layer_factory.hpp:77] Creating layer relu5
I1025 21:02:40.242502 27376 net.cpp:100] Creating Layer relu5
I1025 21:02:40.242518 27376 net.cpp:434] relu5 <- conv5
I1025 21:02:40.242552 27376 net.cpp:395] relu5 -> conv5 (in-place)
I1025 21:02:40.242571 27376 net.cpp:150] Setting up relu5
I1025 21:02:40.242586 27376 net.cpp:157] Top shape: 128 64 4 4 (131072)
I1025 21:02:40.242604 27376 net.cpp:165] Memory required for data: 51382272
I1025 21:02:40.242620 27376 layer_factory.hpp:77] Creating layer ip1
I1025 21:02:40.242638 27376 net.cpp:100] Creating Layer ip1
I1025 21:02:40.242661 27376 net.cpp:434] ip1 <- conv5
I1025 21:02:40.242683 27376 net.cpp:408] ip1 -> ip1
I1025 21:02:40.245666 27376 net.cpp:150] Setting up ip1
I1025 21:02:40.245702 27376 net.cpp:157] Top shape: 128 128 (16384)
I1025 21:02:40.245714 27376 net.cpp:165] Memory required for data: 51447808
I1025 21:02:40.245729 27376 layer_factory.hpp:77] Creating layer ip1_bn
I1025 21:02:40.245749 27376 net.cpp:100] Creating Layer ip1_bn
I1025 21:02:40.245764 27376 net.cpp:434] ip1_bn <- ip1
I1025 21:02:40.245779 27376 net.cpp:395] ip1_bn -> ip1 (in-place)
I1025 21:02:40.245950 27376 net.cpp:150] Setting up ip1_bn
I1025 21:02:40.245975 27376 net.cpp:157] Top shape: 128 128 (16384)
I1025 21:02:40.245986 27376 net.cpp:165] Memory required for data: 51513344
I1025 21:02:40.246007 27376 layer_factory.hpp:77] Creating layer ip1_bn_scale
I1025 21:02:40.246029 27376 net.cpp:100] Creating Layer ip1_bn_scale
I1025 21:02:40.246042 27376 net.cpp:434] ip1_bn_scale <- ip1
I1025 21:02:40.246059 27376 net.cpp:395] ip1_bn_scale -> ip1 (in-place)
I1025 21:02:40.246105 27376 layer_factory.hpp:77] Creating layer ip1_bn_scale
I1025 21:02:40.246328 27376 net.cpp:150] Setting up ip1_bn_scale
I1025 21:02:40.246358 27376 net.cpp:157] Top shape: 128 128 (16384)
I1025 21:02:40.246371 27376 net.cpp:165] Memory required for data: 51578880
I1025 21:02:40.246387 27376 layer_factory.hpp:77] Creating layer relu-ip1
I1025 21:02:40.246407 27376 net.cpp:100] Creating Layer relu-ip1
I1025 21:02:40.246420 27376 net.cpp:434] relu-ip1 <- ip1
I1025 21:02:40.246434 27376 net.cpp:395] relu-ip1 -> ip1 (in-place)
I1025 21:02:40.246460 27376 net.cpp:150] Setting up relu-ip1
I1025 21:02:40.246476 27376 net.cpp:157] Top shape: 128 128 (16384)
I1025 21:02:40.246501 27376 net.cpp:165] Memory required for data: 51644416
I1025 21:02:40.246532 27376 layer_factory.hpp:77] Creating layer fullyconnected1
I1025 21:02:40.246562 27376 net.cpp:100] Creating Layer fullyconnected1
I1025 21:02:40.246574 27376 net.cpp:434] fullyconnected1 <- ip1
I1025 21:02:40.246588 27376 net.cpp:408] fullyconnected1 -> fullyconnected1
I1025 21:02:40.246686 27376 net.cpp:150] Setting up fullyconnected1
I1025 21:02:40.246712 27376 net.cpp:157] Top shape: 128 4 (512)
I1025 21:02:40.246724 27376 net.cpp:165] Memory required for data: 51646464
I1025 21:02:40.246740 27376 layer_factory.hpp:77] Creating layer smallRegressionLoss
I1025 21:02:40.246760 27376 net.cpp:100] Creating Layer smallRegressionLoss
I1025 21:02:40.246773 27376 net.cpp:434] smallRegressionLoss <- fullyconnected1
I1025 21:02:40.246788 27376 net.cpp:434] smallRegressionLoss <- roi
I1025 21:02:40.246821 27376 net.cpp:408] smallRegressionLoss -> RegressionLoss
…
