…
I1102 16:57:27.660121 10914 upgrade_proto.cpp:80] Successfully upgraded batch norm layers using deprecated params.
I1102 16:57:27.660249 10914 net.cpp:322] The NetState phase (0) differed from the phase (1) specified by a rule in layer test-data
I1102 16:57:27.660511 10914 net.cpp:58] Initializing net from parameters: 
name: "hand_gesture_reg_mouth64"
state {
  phase: TRAIN
  level: 0
  stage: ""
}
layer {
  name: "input-data"
  type: "Python"
  top: "data"
  top: "roi"
  include {
    phase: TRAIN
  }
  python_param {
    module: "pythonLayer"
    layer: "Data_Layer_train"
  }
}
layer {
  name: "conv1"
  type: "Convolution"
  bottom: "data"
  top: "conv1"
  param {
    lr_mult: 1
    decay_mult: 1
  }
  convolution_param {
    num_output: 12
    bias_term: false
    pad: 1
    kernel_size: 3
    stride: 2
    weight_filler {
      type: "xavier"
      std: 0.01
    }
  }
}
layer {
  name: "conv1_bn"
  type: "BatchNorm"
  bottom: "conv1"
  top: "conv1"
  batch_norm_param {
    use_global_stats: false
    moving_average_fraction: 0.9
    eps: 2e-05
  }
}
layer {
  name: "conv1_bn_scale"
  type: "Scale"
  bottom: "conv1"
  top: "conv1"
  param {
    lr_mult: 1
    decay_mult: 0
  }
  param {
    lr_mult: 1
    decay_mult: 0
  }
  scale_param {
    filler {
      value: 1
    }
    bias_term: true
    bias_filler {
      value: 0
    }
  }
}
layer {
  name: "relu1"
  type: "ReLU"
  bottom: "conv1"
  top: "conv1"
}
layer {
  name: "conv2"
  type: "Convolution"
  bottom: "conv1"
  top: "conv2"
  param {
    lr_mult: 1
    decay_mult: 1
  }
  convolution_param {
    num_output: 20
    bias_term: false
    pad: 1
    kernel_size: 3
    stride: 2
    weight_filler {
      type: "xavier"
      std: 0.1
    }
  }
}
layer {
  name: "conv2_bn"
  type: "BatchNorm"
  bottom: "conv2"
  top: "conv2"
  batch_norm_param {
    use_global_stats: false
    moving_average_fraction: 0.9
    eps: 2e-05
  }
}
layer {
  name: "conv2_bn_scale"
  type: "Scale"
  bottom: "conv2"
  top: "conv2"
  param {
    lr_mult: 1
    decay_mult: 0
  }
  param {
    lr_mult: 1
    decay_mult: 0
  }
  scale_param {
    filler {
      value: 1
    }
    bias_term: true
    bias_filler {
      value: 0
    }
  }
}
layer {
  name: "relu2"
  type: "ReLU"
  bottom: "conv2"
  top: "conv2"
}
layer {
  name: "conv3"
  type: "Convolution"
  bottom: "conv2"
  top: "conv3"
  param {
    lr_mult: 1
    decay_mult: 1
  }
  convolution_param {
    num_output: 40
    bias_term: false
    pad: 1
    kernel_size: 3
    stride: 2
    weight_filler {
      type: "xavier"
      std: 0.1
    }
  }
}
layer {
  name: "conv3_bn"
  type: "BatchNorm"
  bottom: "conv3"
  top: "conv3"
  batch_norm_param {
    use_global_stats: false
    moving_average_fraction: 0.9
    eps: 2e-05
  }
}
layer {
  name: "conv3_bn_scale"
  type: "Scale"
  bottom: "conv3"
  top: "conv3"
  param {
    lr_mult: 1
    decay_mult: 0
  }
  param {
    lr_mult: 1
    decay_mult: 0
  }
  scale_param {
    filler {
      value: 1
    }
    bias_term: true
    bias_filler {
      value: 0
    }
  }
}
layer {
  name: "relu3"
  type: "ReLU"
  bottom: "conv3"
  top: "conv3"
}
layer {
  name: "conv4"
  type: "Convolution"
  bottom: "conv3"
  top: "conv4"
  param {
    lr_mult: 1
    decay_mult: 1
  }
  convolution_param {
    num_output: 64
    bias_term: false
    pad: 1
    kernel_size: 3
    stride: 2
    weight_filler {
      type: "xavier"
      std: 0.1
    }
  }
}
layer {
  name: "conv4_bn"
  type: "BatchNorm"
  bottom: "conv4"
  top: "conv4"
  batch_norm_param {
    use_global_stats: false
    moving_average_fraction: 0.9
    eps: 2e-05
  }
}
layer {
  name: "conv4_bn_scale"
  type: "Scale"
  bottom: "conv4"
  top: "conv4"
  param {
    lr_mult: 1
    decay_mult: 0
  }
  param {
    lr_mult: 1
    decay_mult: 0
  }
  scale_param {
    filler {
      value: 1
    }
    bias_term: true
    bias_filler {
      value: 0
    }
  }
}
layer {
  name: "relu4"
  type: "ReLU"
  bottom: "conv4"
  top: "conv4"
}
layer {
  name: "conv5"
  type: "Convolution"
  bottom: "conv4"
  top: "conv5"
  param {
    lr_mult: 1
    decay_mult: 1
  }
  convolution_param {
    num_output: 64
    bias_term: false
    pad: 1
    kernel_size: 3
    stride: 1
    weight_filler {
      type: "xavier"
      std: 0.1
    }
  }
}
layer {
  name: "conv5_bn"
  type: "BatchNorm"
  bottom: "conv5"
  top: "conv5"
  batch_norm_param {
    use_global_stats: false
    moving_average_fraction: 0.9
    eps: 2e-05
  }
}
layer {
  name: "conv5_bn_scale"
  type: "Scale"
  bottom: "conv5"
  top: "conv5"
  param {
    lr_mult: 1
    decay_mult: 0
  }
  param {
    lr_mult: 1
    decay_mult: 0
  }
  scale_param {
    filler {
      value: 1
    }
    bias_term: true
    bias_filler {
      value: 0
    }
  }
}
layer {
  name: "relu5"
  type: "ReLU"
  bottom: "conv5"
  top: "conv5"
}
layer {
  name: "det-ip1"
  type: "InnerProduct"
  bottom: "conv5"
  top: "det-ip1"
  param {
    lr_mult: 1
    decay_mult: 1
  }
  inner_product_param {
    num_output: 128
    bias_term: false
    weight_filler {
      type: "xavier"
      std: 0.1
    }
  }
}
layer {
  name: "det-ip1_bn"
  type: "BatchNorm"
  bottom: "det-ip1"
  top: "det-ip1"
  batch_norm_param {
    use_global_stats: false
    moving_average_fraction: 0.9
    eps: 2e-05
  }
}
layer {
  name: "det-ip1_bn_scale"
  type: "Scale"
  bottom: "det-ip1"
  top: "det-ip1"
  param {
    lr_mult: 1
    decay_mult: 0
  }
  param {
    lr_mult: 1
    decay_mult: 0
  }
  scale_param {
    filler {
      value: 1
    }
    bias_term: true
    bias_filler {
      value: 0
    }
  }
}
layer {
  name: "relu-det-ip1"
  type: "ReLU"
  bottom: "det-ip1"
  top: "det-ip1"
}
layer {
  name: "fullyconnected1"
  type: "InnerProduct"
  bottom: "det-ip1"
  top: "fullyconnected1"
  param {
    lr_mult: 1
    decay_mult: 1
  }
  param {
    lr_mult: 2
    decay_mult: 1
  }
  inner_product_param {
    num_output: 4
    weight_filler {
      type: "xavier"
    }
    bias_filler {
      type: "constant"
      value: 0
    }
  }
}
layer {
  name: "smallRegressionLoss"
  type: "EuclideanLoss"
  bottom: "fullyconnected1"
  bottom: "roi"
  top: "RegressionLoss"
  loss_weight: 1
  propagate_down: true
  propagate_down: false
}
I1102 16:57:27.660718 10914 layer_factory.hpp:77] Creating layer input-data
I1102 16:57:28.825966 10914 net.cpp:100] Creating Layer input-data
I1102 16:57:28.826020 10914 net.cpp:408] input-data -> data
I1102 16:57:28.826071 10914 net.cpp:408] input-data -> roi

Start Reading: /nfs/zhengmeisong/wkspace/gesture/VOCdevkit/VOC2007/train.txt  into Memory...
…
################################################################### ]99%[################################################################################################### ]99%[################################################################################################### ]99%[################################################################################################### ]99%[################################################################################################### ]99%I1102 16:57:53.640449 10914 net.cpp:150] Setting up input-data
I1102 16:57:53.640517 10914 net.cpp:157] Top shape: 128 3 128 128 (6291456)
I1102 16:57:53.640533 10914 net.cpp:157] Top shape: 128 4 (512)
I1102 16:57:53.640552 10914 net.cpp:165] Memory required for data: 25167872
I1102 16:57:53.640578 10914 layer_factory.hpp:77] Creating layer conv1
I1102 16:57:53.640622 10914 net.cpp:100] Creating Layer conv1
I1102 16:57:53.640640 10914 net.cpp:434] conv1 <- data
I1102 16:57:53.640676 10914 net.cpp:408] conv1 -> conv1
I1102 16:57:53.643656 10914 net.cpp:150] Setting up conv1
I1102 16:57:53.643692 10914 net.cpp:157] Top shape: 128 12 64 64 (6291456)
I1102 16:57:53.643707 10914 net.cpp:165] Memory required for data: 50333696
I1102 16:57:53.643739 10914 layer_factory.hpp:77] Creating layer conv1_bn
I1102 16:57:53.643769 10914 net.cpp:100] Creating Layer conv1_bn
I1102 16:57:53.643847 10914 net.cpp:434] conv1_bn <- conv1
I1102 16:57:53.643872 10914 net.cpp:395] conv1_bn -> conv1 (in-place)
I1102 16:57:53.646411 10914 net.cpp:150] Setting up conv1_bn
I1102 16:57:53.646446 10914 net.cpp:157] Top shape: 128 12 64 64 (6291456)
I1102 16:57:53.646461 10914 net.cpp:165] Memory required for data: 75499520
I1102 16:57:53.646484 10914 layer_factory.hpp:77] Creating layer conv1_bn_scale
I1102 16:57:53.646518 10914 net.cpp:100] Creating Layer conv1_bn_scale
I1102 16:57:53.646533 10914 net.cpp:434] conv1_bn_scale <- conv1
I1102 16:57:53.646560 10914 net.cpp:395] conv1_bn_scale -> conv1 (in-place)
I1102 16:57:53.646644 10914 layer_factory.hpp:77] Creating layer conv1_bn_scale
I1102 16:57:53.646785 10914 net.cpp:150] Setting up conv1_bn_scale
I1102 16:57:53.646812 10914 net.cpp:157] Top shape: 128 12 64 64 (6291456)
I1102 16:57:53.646826 10914 net.cpp:165] Memory required for data: 100665344
I1102 16:57:53.646844 10914 layer_factory.hpp:77] Creating layer relu1
I1102 16:57:53.646865 10914 net.cpp:100] Creating Layer relu1
I1102 16:57:53.646894 10914 net.cpp:434] relu1 <- conv1
I1102 16:57:53.646940 10914 net.cpp:395] relu1 -> conv1 (in-place)
I1102 16:57:53.646957 10914 net.cpp:150] Setting up relu1
I1102 16:57:53.646977 10914 net.cpp:157] Top shape: 128 12 64 64 (6291456)
I1102 16:57:53.646989 10914 net.cpp:165] Memory required for data: 125831168
I1102 16:57:53.647006 10914 layer_factory.hpp:77] Creating layer conv2
I1102 16:57:53.647024 10914 net.cpp:100] Creating Layer conv2
I1102 16:57:53.647044 10914 net.cpp:434] conv2 <- conv1
I1102 16:57:53.647060 10914 net.cpp:408] conv2 -> conv2
I1102 16:57:53.647235 10914 net.cpp:150] Setting up conv2
I1102 16:57:53.647275 10914 net.cpp:157] Top shape: 128 20 32 32 (2621440)
I1102 16:57:53.647308 10914 net.cpp:165] Memory required for data: 136316928
I1102 16:57:53.647330 10914 layer_factory.hpp:77] Creating layer conv2_bn
I1102 16:57:53.647349 10914 net.cpp:100] Creating Layer conv2_bn
I1102 16:57:53.647397 10914 net.cpp:434] conv2_bn <- conv2
I1102 16:57:53.647414 10914 net.cpp:395] conv2_bn -> conv2 (in-place)
I1102 16:57:53.647598 10914 net.cpp:150] Setting up conv2_bn
I1102 16:57:53.647624 10914 net.cpp:157] Top shape: 128 20 32 32 (2621440)
I1102 16:57:53.647639 10914 net.cpp:165] Memory required for data: 146802688
I1102 16:57:53.647655 10914 layer_factory.hpp:77] Creating layer conv2_bn_scale
I1102 16:57:53.647686 10914 net.cpp:100] Creating Layer conv2_bn_scale
I1102 16:57:53.647712 10914 net.cpp:434] conv2_bn_scale <- conv2
I1102 16:57:53.647747 10914 net.cpp:395] conv2_bn_scale -> conv2 (in-place)
I1102 16:57:53.647861 10914 layer_factory.hpp:77] Creating layer conv2_bn_scale
I1102 16:57:53.648035 10914 net.cpp:150] Setting up conv2_bn_scale
I1102 16:57:53.648226 10914 net.cpp:157] Top shape: 128 20 32 32 (2621440)
I1102 16:57:53.648694 10914 net.cpp:165] Memory required for data: 157288448
I1102 16:57:53.648751 10914 layer_factory.hpp:77] Creating layer relu2
I1102 16:57:53.648805 10914 net.cpp:100] Creating Layer relu2
I1102 16:57:53.648937 10914 net.cpp:434] relu2 <- conv2
I1102 16:57:53.648958 10914 net.cpp:395] relu2 -> conv2 (in-place)
I1102 16:57:53.648974 10914 net.cpp:150] Setting up relu2
I1102 16:57:53.648989 10914 net.cpp:157] Top shape: 128 20 32 32 (2621440)
I1102 16:57:53.649001 10914 net.cpp:165] Memory required for data: 167774208
I1102 16:57:53.649013 10914 layer_factory.hpp:77] Creating layer conv3
I1102 16:57:53.649029 10914 net.cpp:100] Creating Layer conv3
I1102 16:57:53.649041 10914 net.cpp:434] conv3 <- conv2
I1102 16:57:53.649056 10914 net.cpp:408] conv3 -> conv3
I1102 16:57:53.651648 10914 net.cpp:150] Setting up conv3
I1102 16:57:53.651688 10914 net.cpp:157] Top shape: 128 40 16 16 (1310720)
I1102 16:57:53.651701 10914 net.cpp:165] Memory required for data: 173017088
I1102 16:57:53.651739 10914 layer_factory.hpp:77] Creating layer conv3_bn
I1102 16:57:53.651760 10914 net.cpp:100] Creating Layer conv3_bn
I1102 16:57:53.651788 10914 net.cpp:434] conv3_bn <- conv3
I1102 16:57:53.651808 10914 net.cpp:395] conv3_bn -> conv3 (in-place)
I1102 16:57:53.652035 10914 net.cpp:150] Setting up conv3_bn
I1102 16:57:53.652061 10914 net.cpp:157] Top shape: 128 40 16 16 (1310720)
I1102 16:57:53.652073 10914 net.cpp:165] Memory required for data: 178259968
I1102 16:57:53.652093 10914 layer_factory.hpp:77] Creating layer conv3_bn_scale
I1102 16:57:53.652115 10914 net.cpp:100] Creating Layer conv3_bn_scale
I1102 16:57:53.652140 10914 net.cpp:434] conv3_bn_scale <- conv3
I1102 16:57:53.652156 10914 net.cpp:395] conv3_bn_scale -> conv3 (in-place)
I1102 16:57:53.652204 10914 layer_factory.hpp:77] Creating layer conv3_bn_scale
I1102 16:57:53.652326 10914 net.cpp:150] Setting up conv3_bn_scale
I1102 16:57:53.652354 10914 net.cpp:157] Top shape: 128 40 16 16 (1310720)
I1102 16:57:53.652366 10914 net.cpp:165] Memory required for data: 183502848
I1102 16:57:53.652388 10914 layer_factory.hpp:77] Creating layer relu3
I1102 16:57:53.652424 10914 net.cpp:100] Creating Layer relu3
I1102 16:57:53.652446 10914 net.cpp:434] relu3 <- conv3
I1102 16:57:53.652462 10914 net.cpp:395] relu3 -> conv3 (in-place)
I1102 16:57:53.652478 10914 net.cpp:150] Setting up relu3
I1102 16:57:53.652499 10914 net.cpp:157] Top shape: 128 40 16 16 (1310720)
I1102 16:57:53.652511 10914 net.cpp:165] Memory required for data: 188745728
I1102 16:57:53.652524 10914 layer_factory.hpp:77] Creating layer conv4
I1102 16:57:53.652545 10914 net.cpp:100] Creating Layer conv4
I1102 16:57:53.652565 10914 net.cpp:434] conv4 <- conv3
I1102 16:57:53.652580 10914 net.cpp:408] conv4 -> conv4
I1102 16:57:53.655364 10914 net.cpp:150] Setting up conv4
I1102 16:57:53.655398 10914 net.cpp:157] Top shape: 128 64 8 8 (524288)
I1102 16:57:53.655413 10914 net.cpp:165] Memory required for data: 190842880
I1102 16:57:53.655453 10914 layer_factory.hpp:77] Creating layer conv4_bn
I1102 16:57:53.655475 10914 net.cpp:100] Creating Layer conv4_bn
I1102 16:57:53.655491 10914 net.cpp:434] conv4_bn <- conv4
I1102 16:57:53.655506 10914 net.cpp:395] conv4_bn -> conv4 (in-place)
I1102 16:57:53.655697 10914 net.cpp:150] Setting up conv4_bn
I1102 16:57:53.655724 10914 net.cpp:157] Top shape: 128 64 8 8 (524288)
I1102 16:57:53.655735 10914 net.cpp:165] Memory required for data: 192940032
I1102 16:57:53.655753 10914 layer_factory.hpp:77] Creating layer conv4_bn_scale
I1102 16:57:53.655772 10914 net.cpp:100] Creating Layer conv4_bn_scale
I1102 16:57:53.655818 10914 net.cpp:434] conv4_bn_scale <- conv4
I1102 16:57:53.655875 10914 net.cpp:395] conv4_bn_scale -> conv4 (in-place)
I1102 16:57:53.655923 10914 layer_factory.hpp:77] Creating layer conv4_bn_scale
I1102 16:57:53.656038 10914 net.cpp:150] Setting up conv4_bn_scale
I1102 16:57:53.656064 10914 net.cpp:157] Top shape: 128 64 8 8 (524288)
I1102 16:57:53.656077 10914 net.cpp:165] Memory required for data: 195037184
I1102 16:57:53.656095 10914 layer_factory.hpp:77] Creating layer relu4
I1102 16:57:53.656114 10914 net.cpp:100] Creating Layer relu4
I1102 16:57:53.656131 10914 net.cpp:434] relu4 <- conv4
I1102 16:57:53.656147 10914 net.cpp:395] relu4 -> conv4 (in-place)
I1102 16:57:53.656163 10914 net.cpp:150] Setting up relu4
I1102 16:57:53.656178 10914 net.cpp:157] Top shape: 128 64 8 8 (524288)
I1102 16:57:53.656191 10914 net.cpp:165] Memory required for data: 197134336
I1102 16:57:53.656203 10914 layer_factory.hpp:77] Creating layer conv5
I1102 16:57:53.656229 10914 net.cpp:100] Creating Layer conv5
I1102 16:57:53.656244 10914 net.cpp:434] conv5 <- conv4
I1102 16:57:53.656260 10914 net.cpp:408] conv5 -> conv5
I1102 16:57:53.656616 10914 net.cpp:150] Setting up conv5
I1102 16:57:53.656643 10914 net.cpp:157] Top shape: 128 64 8 8 (524288)
I1102 16:57:53.656656 10914 net.cpp:165] Memory required for data: 199231488
I1102 16:57:53.656672 10914 layer_factory.hpp:77] Creating layer conv5_bn
I1102 16:57:53.656692 10914 net.cpp:100] Creating Layer conv5_bn
I1102 16:57:53.656704 10914 net.cpp:434] conv5_bn <- conv5
I1102 16:57:53.656724 10914 net.cpp:395] conv5_bn -> conv5 (in-place)
I1102 16:57:53.656895 10914 net.cpp:150] Setting up conv5_bn
I1102 16:57:53.656926 10914 net.cpp:157] Top shape: 128 64 8 8 (524288)
I1102 16:57:53.656966 10914 net.cpp:165] Memory required for data: 201328640
I1102 16:57:53.656985 10914 layer_factory.hpp:77] Creating layer conv5_bn_scale
I1102 16:57:53.657007 10914 net.cpp:100] Creating Layer conv5_bn_scale
I1102 16:57:53.657021 10914 net.cpp:434] conv5_bn_scale <- conv5
I1102 16:57:53.657044 10914 net.cpp:395] conv5_bn_scale -> conv5 (in-place)
I1102 16:57:53.657099 10914 layer_factory.hpp:77] Creating layer conv5_bn_scale
I1102 16:57:53.657209 10914 net.cpp:150] Setting up conv5_bn_scale
I1102 16:57:53.657234 10914 net.cpp:157] Top shape: 128 64 8 8 (524288)
I1102 16:57:53.657251 10914 net.cpp:165] Memory required for data: 203425792
I1102 16:57:53.657266 10914 layer_factory.hpp:77] Creating layer relu5
I1102 16:57:53.657289 10914 net.cpp:100] Creating Layer relu5
I1102 16:57:53.657300 10914 net.cpp:434] relu5 <- conv5
I1102 16:57:53.657320 10914 net.cpp:395] relu5 -> conv5 (in-place)
I1102 16:57:53.657347 10914 net.cpp:150] Setting up relu5
I1102 16:57:53.657371 10914 net.cpp:157] Top shape: 128 64 8 8 (524288)
I1102 16:57:53.657383 10914 net.cpp:165] Memory required for data: 205522944
I1102 16:57:53.657397 10914 layer_factory.hpp:77] Creating layer det-ip1
I1102 16:57:53.657418 10914 net.cpp:100] Creating Layer det-ip1
I1102 16:57:53.657438 10914 net.cpp:434] det-ip1 <- conv5
I1102 16:57:53.657454 10914 net.cpp:408] det-ip1 -> det-ip1
I1102 16:57:53.664144 10914 net.cpp:150] Setting up det-ip1
I1102 16:57:53.664182 10914 net.cpp:157] Top shape: 128 128 (16384)
I1102 16:57:53.664196 10914 net.cpp:165] Memory required for data: 205588480
I1102 16:57:53.664211 10914 layer_factory.hpp:77] Creating layer det-ip1_bn
I1102 16:57:53.664232 10914 net.cpp:100] Creating Layer det-ip1_bn
I1102 16:57:53.664253 10914 net.cpp:434] det-ip1_bn <- det-ip1
I1102 16:57:53.664270 10914 net.cpp:395] det-ip1_bn -> det-ip1 (in-place)
I1102 16:57:53.664435 10914 net.cpp:150] Setting up det-ip1_bn
I1102 16:57:53.664459 10914 net.cpp:157] Top shape: 128 128 (16384)
I1102 16:57:53.664470 10914 net.cpp:165] Memory required for data: 205654016
I1102 16:57:53.664496 10914 layer_factory.hpp:77] Creating layer det-ip1_bn_scale
I1102 16:57:53.664520 10914 net.cpp:100] Creating Layer det-ip1_bn_scale
I1102 16:57:53.664535 10914 net.cpp:434] det-ip1_bn_scale <- det-ip1
I1102 16:57:53.664556 10914 net.cpp:395] det-ip1_bn_scale -> det-ip1 (in-place)
I1102 16:57:53.664602 10914 layer_factory.hpp:77] Creating layer det-ip1_bn_scale
I1102 16:57:53.664710 10914 net.cpp:150] Setting up det-ip1_bn_scale
I1102 16:57:53.664734 10914 net.cpp:157] Top shape: 128 128 (16384)
I1102 16:57:53.664746 10914 net.cpp:165] Memory required for data: 205719552
I1102 16:57:53.664764 10914 layer_factory.hpp:77] Creating layer relu-det-ip1
I1102 16:57:53.664788 10914 net.cpp:100] Creating Layer relu-det-ip1
I1102 16:57:53.664809 10914 net.cpp:434] relu-det-ip1 <- det-ip1
I1102 16:57:53.664824 10914 net.cpp:395] relu-det-ip1 -> det-ip1 (in-place)
I1102 16:57:53.664845 10914 net.cpp:150] Setting up relu-det-ip1
I1102 16:57:53.664866 10914 net.cpp:157] Top shape: 128 128 (16384)
I1102 16:57:53.664885 10914 net.cpp:165] Memory required for data: 205785088
I1102 16:57:53.664896 10914 layer_factory.hpp:77] Creating layer fullyconnected1
I1102 16:57:53.664917 10914 net.cpp:100] Creating Layer fullyconnected1
I1102 16:57:53.664930 10914 net.cpp:434] fullyconnected1 <- det-ip1
I1102 16:57:53.664948 10914 net.cpp:408] fullyconnected1 -> fullyconnected1
I1102 16:57:53.665110 10914 net.cpp:150] Setting up fullyconnected1
I1102 16:57:53.665143 10914 net.cpp:157] Top shape: 128 4 (512)
I1102 16:57:53.665154 10914 net.cpp:165] Memory required for data: 205787136
I1102 16:57:53.665171 10914 layer_factory.hpp:77] Creating layer smallRegressionLoss
I1102 16:57:53.665205 10914 net.cpp:100] Creating Layer smallRegressionLoss
I1102 16:57:53.665226 10914 net.cpp:434] smallRegressionLoss <- fullyconnected1
I1102 16:57:53.665241 10914 net.cpp:434] smallRegressionLoss <- roi
I1102 16:57:53.665261 10914 net.cpp:408] smallRegressionLoss -> RegressionLoss
…
